checkpoints/DDPG/Target_actor/DDPG_target_actor_1000.pth (torch_old, 505214 bytes, 10 tensors)

fc1.weight f4 [400, 8]
00000000: baec 58be 432b 4abd 97a2 0bbf 373c 8cbe
00000010: e55b d93f 0a0a ce3e 3684 6cbe 9fe6 04bf
00000020: d4a6 23be 8877 c13e 4f51 253e 9fab d53c
00000030: d83a 573e 3285 4bbf 759f 5fbd 0349 653e
00000040: b0df e73e 527c 8a3e 6cc4 a7be c893 913e
00000050: 0c9e a0bd a244 88bc 479e 35bb a101 c1bc
00000060: b3c0 0c3f f221 1abc 4d18 48bf f603 0f3f
00000070: 8cc3 bf3e 3df6 4f3e d053 1b3e d77d 323d
00000080: a394 da3e be0d 383f 92ea f7bd 04d2 36be
00000090: 5960 2abf ee61 af3e 4c42 723e 8dbc 253f
000000a0: 6cb0 553d e30c 92be 2907 e8be 2b1f c63f
000000b0: 0cd5 383e df89 d3be 7178 993e 252e 413e
000000c0: 226a 9d3d f349 45be a733 0e3f 765e 8bbe
000000d0: 0baf 86bf 5e2a 2a3e 44fe 263e e905 2e3e
000000e0: 3555 04bd c0ed da3d 116a ab3e 7f75 61bd
000000f0: a2aa 963e 8b01 5c3e ff1e 68bd 8b9a f33c
00000100: db51 a5bd 9507 fc3d 4bc5 c13d 8ba8 083d
00000110: 0dd8 fc3d 7eb9 0e3e fd53 9dbe c220 e73e
00000120: 287c c2be 6d2c 193f ca34 183f 4a05 fa3c
00000130: f4d1 03bf e33c 893d 7eeb fb3e aadf 9f3e
00000140: 54f1 843e 967b 043f efaf a8be b590 813d
00000150: 3b6c 4abd 44c4 20bf 25ca 9c3e 69b6 8b3e
00000160: cfda f13e e8bf be3e cecb d83e 7434 8fbe
00000170: 74f4 e5be 2331 85be b7f1 bd3e 8196 c63e
00000180: ffa5 15bf b47e ff3d c199 47bf 5285 4abe
00000190: 885f 183d 57a8 a9be 4010 ce3e 07be 9fbb
000001a0: 005a 123f 1506 a3bd 5e7f 4a3f 9cee a1bb
000001b0: 946b 2abf 930f 833c 3ac4 433e dbc4 b0bd
000001c0: c1a6 1b3f 736a 3f3f 60e3 8739 bdc9 0abe
000001d0: 3779 d8be 1f8c 2e3f d6fc 293f 692b f93e
000001e0: 2443 933e e818 5ebe 8621 d23e 855a 9bbe
000001f0: 3e30 06bf 784f a1bd ac8c 98bd 8e63 12be
00000200: fb6e 233f a41f d73f 6ca5 ec3e 438b cbbe
00000210: c52a d6be 3671 56be e286 2d3f 612c 203f
00000220: 7e33 8ebe 68d7 143c c1bf 26bf b59c 55be
00000230: 895d 403f 7ba3 f6bd 0ead e2be 388a 1b3e
00000240: f847 b23e 784a a53e 3592 313e 3de8 d5be
00000250: d0b8 cfbf d7ae 07bf 0b07 a13e 5795 ce3e
00000260: ccbc 66bb 2a9a 0f3e fa7e b13f ce3d 223e
00000270: 0696 bfbf 1484 fdbe f08e 3f3e 4a64 edbc
00000280: 1b2e a1be a0a6 293e 7ea2 7bbf 1312 a1be
00000290: 14c1 3abf 1e02 ec3e 1d5f 043e 440d 9cbe
000002a0: 9b6f e43b b544 1a3f 978a e13e 9b77 a93e
000002b0: 7f86 d6bd ad57 1f3e 826f e83e 2088 123f
000002c0: 26f9 cbbe daef 973e 7f13 313f df74 cf3e
000002d0: 681a aabd 903c b13e 8eb8 d5bd 5821 f83e
000002e0: 0ee3 993e e983 873d e84e c5be edaa 1cbf
000002f0: 68eb 9c3f b7eb 173f 2034 8d3e 776d c23d
00000300: 5799 dfbe 4bd4 763e dfdc 1f3d aa1b d03e
00000310: 9b03 803e 9711 bf3e 3dc2 a13d 6f4a 323e
00000320: 4f14 e53d f5a1 883e b29e 093e ae31 ca3f
00000330: 0044 943d 4e6f 8ebe af31 4e3e 60db 243e
00000340: 8de2 303e 9322 093f 5d3f 78be c048 7bbd
00000350: 42b3 c6be 6887 913d 9819 0e3e 22f6 be3e
00000360: abc6 2c3e e6ba 343e 1c28 173f aafa 243e
00000370: f7a2 66be c902 843f 668f f53e 34ce 373e
00000380: 7f3a 6ebe 9ac9 bb3e b859 b6bf bd36 313e
00000390: 66fa 323e 69d1 34be cf21 1d3e a60b a43e
000003a0: 21b9 0bbe fbc0 443c 35cb ba3e 4be6 49bf
000003b0: e121 1ebf ed36 d0be 8adb 7abe ddf1 683e
000003c0: d35d 9f3e a8a9 073f e2b9 c73e c267 91be
000003d0: cf68 bc3e 3643 7dbf c079 df3d 8c55 da3e
000003e0: baa6 adbe 4f68 8abe 88f6 143e cb90 9a3e
000003f0: 01ee 4f3d 40b7 3c3d 914b 16bb d0be 3f3e
-0.21184054 -0.049357664 -0.5454497 -0.2738969 1.6981169 0.40242034 -0.2309731 -0.519144
-0.15981609 0.37786508 0.16144298 0.026082812 0.21018541 -0.79500115 -0.05459543 0.22391133
0.45287848 0.27047974 -0.32767045 0.2843306 -0.07842645 -0.01663429 -0.002771275 -0.023560347
0.54981536 -0.009407507 -0.7816208 0.5586542 0.37453878 0.20308776 0.1516869 0.04357704
0.42691526 0.7189597 -0.121052876 -0.17853552 -0.66553265 0.34254402 0.23658103 0.6474083
0.052170202 -0.28525457 -0.45317963 1.5478262 0.18050021 -0.41316125 0.29974702 0.18865259
0.07686259 -0.1926649 0.55547565 -0.27220505 -1.0522169 0.16617724 0.16307932 0.16994442
-0.032307822 0.106898785 0.3347936 -0.055043694 0.29427058 0.21484964 -0.056670185 0.029736778
-0.08072253 0.12306134 0.09461459 0.03336386 0.12345896 0.13937947 -0.3072814 0.4514218
-0.3798535 0.59833413 0.5945555 0.0305201 -0.5149224 0.06701066 0.49203104 0.3122533
0.2596537 0.5175108 -0.32946727 0.06326429 -0.049419623 -0.6279948 0.30622974 0.27287605
0.4723725 0.37255788 0.4234299 -0.27969706 -0.44913065 -0.2601405 0.37098476 0.387867
-0.58456415 0.124753386 -0.77968985 -0.1977742 0.03720048 -0.33136246 0.40246773 -0.004874948
0.5716858 -0.079601444 0.79100597 -0.0049417745 -0.665704 0.015998637 0.19117823 -0.08631297
0.6080132 0.74771804 0.00025918614 -0.1355352 -0.4227998 0.6818256 0.6640142 0.48665932
0.28762162 -0.21689188 0.410412 -0.30342498 -0.5241736 -0.078764856 -0.07448706 -0.1429579
0.6384122 1.6806531 0.46219957 -0.39754686 -0.41829506 -0.20941624 0.6778394 0.62567717
-0.2777366 0.00908456 -0.65136343 -0.2086056 0.75142723 -0.120429 -0.44272655 0.15189445
0.34820533 0.32283378 0.1734093 -0.41778746 -1.6228275 -0.5300116 0.31450686 0.40348312
-0.0035207747 0.14023653 1.3866875 0.15843889 -1.4967659 -0.4951483 0.1870687 -0.028978486
-0.31480488 0.16567469 -0.9829482 -0.31459102 -0.72950864 0.46095365 0.12926908 -0.3047887
0.006971312 0.6026109 0.44051048 0.33099064 -0.10474872 0.1556079 0.45397574 0.5723896
-0.39838523 0.2967518 0.69170374 0.40518853 -0.08305818 0.34616518 -0.10435592 0.4846294
0.3005604 0.06616957 -0.38536763 -0.6119831 1.225934 0.5934405 0.2757883 0.09493535
-0.43671677 0.24104421 0.039029 0.40646106 0.2500275 0.37318107 0.07898376 0.17411207
0.11185514 0.26686063 0.13439444 1.5796411 0.072395325 -0.27819294 0.2013614 0.1609931
0.17273922 0.5356838 -0.24242921 -0.061348677 -0.38808638 0.07105905 0.1387695 0.3729716
0.16872661 0.17649421 0.5904558 0.16111246 -0.22523104 1.031335 0.47960967 0.17949754
-0.23264502 0.36677247 -1.424613 0.17306037 0.17478332 -0.17658009 0.15344928 0.32040137
-0.1364484 0.012008901 0.3648316 -0.78867024 -0.61770445 -0.40666905 -0.2449781 0.22748514
0.3112627 0.5299325 0.39009005 -0.28399473 0.36798713 -0.9893068 0.10911894 0.42643392
-0.33916265 -0.27032706 0.14547169 0.30188593 0.050764088 0.0460732 -0.0022933225 0.18725133

fc1.bias f4 [400]
00000000: e801 403e 41f4 0fbe 8daa e73c ba8e b8bc
00000010: 4348 6d3e b77a b23e 674e 9c3e 26ee c13e
00000020: 6f4a 763d b55e 0fbe 110f a0bc 5e6f 113e
00000030: 573a b43e 611a 473e 6021 a83e 99f3 4b3e
00000040: 18c8 ef3f 2534 0d3e d540 e13c 69d6 233e
00000050: cfe6 cb3d b52f 03be 72be 963e 2b28 d23d
00000060: 7a61 0f3e 68d5 9a3e 89c5 403e a02d 103d
00000070: f394 603e f5f1 5c3e 363b b33e 0d2f 193e
00000080: f948 773e 4394 b3bd 1c0b de3e ab96 223e
00000090: f2a7 f5bc f7c5 d33e 79c4 57be 81aa d6bd
000000a0: c511 8e3d 6773 213e e054 4ebe b115 47be
000000b0: c91e 613d 756a ca3e 6e8d 983d 4fbc 343e
000000c0: 845c ae3e 4b4c 4f3e 4c2e 3a3e 213b 02bd
000000d0: 3805 d13e 4697 dd3e 1ffa d53e a83c e33e
000000e0: 7df7 533e 481d 123d 51da 1f3e 6b34 563d
000000f0: 6610 e4bd 410a f13e 7d85 0cbe c04c d3bd
00000100: 4de5 a63c eccf d83e df65 673e 3286 cb3e
00000110: 6600 a13e 2c71 e2bd f4f4 c1bd 9650 6c3e
00000120: ec7a ef3e 7f45 6e3e d90f 763e a902 933e
00000130: 654b ce3d 7bba 603e a3cc 363e a0e4 ac3e
00000140: 112a ff3e 1065 a8bd bd7f 7a3e 944e b43e
00000150: 41e0 093f 96f1 3b3e 4401 0c3d ebe1 c63d
00000160: 45dc 19be f941 c1bd dc65 8a3e 8d03 953e
00000170: aef4 9a3d 0216 593e 8655 4f3e 7b33 273e
00000180: 21eb acbd 2d86 9bbd 4aa4 473e e965 a43e
00000190: c233 3f3e 3e84 aa3e 38d1 293e 5b0b 813e
000001a0: 71ea c1bd ac03 84bc 87ef 163f 5353 3abb
000001b0: e4d2 c23f 400f 623e 0378 3c3e 2dd3 313e
000001c0: 03de 2e3e cff3 523e 9d23 ad3e a0ac ec3e
000001d0: 7b33 7e3e dec8 d73d 5f8f 87be 5bf6 05bd
000001e0: be71 433e fee2 a73e 86db c73d 75ec 753e
000001f0: 2aff 2b3f 373f 0a3f f7c0 8b3e 1006 013e
00000200: 5360 d03d a8dc 453e b4ff eb3e bb2f 9a3e
00000210: f9e9 68bd b1c0 903e 8ad4 5e3e d547 de3d
00000220: 09aa 693d c4a0 853e 13c0 6d3c bdab 463f
00000230: d6b3 c03d e537 e13e 0707 1e3e b41a a13e
00000240: a383 823e 7e6f 67be 0e89 df3e 7c6b 21be
00000250: cfd8 80be 0e91 2d3e c69f bc3e 4c0a 2c3e
00000260: 01b8 343f 9cb8 d83c dee3 453e 0cdb 4e3e
00000270: 3be8 b63e 0c04 a43e 8103 be3e 522d 0d3e
00000280: 952f d23e ccf4 773e f11d a73d 70e2 ad3b
00000290: 7ab0 d53e 3442 623e f0bb 26be 4c00 aa3e
000002a0: fbb7 8a3d cc3b 793e 8b92 ab3c 30eb 693e
000002b0: fe91 803e e372 a63e f34f 083e 667d 06be
000002c0: 32c4 933e 7ccb a03e 637c eb3c b9a2 683e
000002d0: 7780 c0bc 8300 ccbd ce26 b93e 2fba a23d
000002e0: e506 a2bd 9ea8 aa3c 4545 743d 1b8b 723e
000002f0: 7762 793d eeee 6d3e c07f 9a3e ab95 ba3e
00000300: 0d7a d2bd 78d8 9b3e e293 ee3d 0b65 2ebe
00000310: 5dd1 ec3e 5c4c bd3e 8b10 a73e e4fa b93d
00000320: e8e2 c93e 60ad 683e f140 3c3e 0446 5c3e
00000330: 0b4c 42bd 716a 253e 9366 27bd 561c 873e
00000340: d2a0 f9b9 3590 833e 3b34 4c3e 7745 cd3d
00000350: d855 163f fdda a93e d113 203e b3ae 853d
00000360: dd4b 8a3e 7a99 673e a590 b23e 314d 5abe
00000370: bbf4 393e 558f b93e 733f 873d 5ea7 dd3d
00000380: cbe5 ddbd 1a09 683e 99f7 c63e 8f4d 5dbe
00000390: f333 cd3e 2b70 193d 8305 893d 7f73 5e3e
000003a0: 9f88 bb3c cdff 6a3e 2e60 833e c008 663e
000003b0: 5cb4 283e f5a9 003f 6c15 383d ac1c 1c3d
000003c0: 0c55 943e 34e2 463e a1b1 c1bd 3dca 86bd
000003d0: d145 5dbd 1569 933e e05c 52be 8f80 41bd
000003e0: 060c a13e 6d64 8a3d 5397 45be 5e11 e83d
000003f0: 8f35 a73d c5be 873e 3ea7 5b3d c41f 4d3e
0.18750727 -0.14058019 0.028279567 -0.022528995 0.23172097 0.3485925 0.30528566 0.37877005
0.06012958 -0.14000972 -0.019538434 0.1420264 0.3520076 0.19443657 0.32837963 0.19917144
1.8732939 0.13789423 0.027496735 0.1599976 0.099561326 -0.12811168 0.29442173 0.10261568
0.14002028 0.3024094 0.18825354 0.03519976 0.2193182 0.21576674 0.35006112 0.14959355
0.2414893 -0.08768513 0.4336785 0.15877788 -0.02998731 0.41361973 -0.21071042 -0.1048174
0.06936983 0.15766679 -0.20149565 -0.19441868 0.054961 0.39534345 0.074488506 0.17649959
0.3405496 0.20243947 0.18181723 -0.03179467 0.40824294 0.43279475 0.4179239 0.44382215
0.20699878 0.035672456 0.15610625 0.052296083 -0.1113594 0.47078136 -0.13722797 -0.10317373
0.020373011 0.42346132 0.22597454 0.3975082 0.31445616 -0.11056742 -0.09470549 0.23077616
0.4677347 0.23268698 0.24029483 0.28712967 0.10072974 0.21946137 0.178515 0.33768177
0.49836782 -0.08222401 0.24462791 0.352162 0.5385781 0.18353876 0.034180894 0.09711059
-0.15025432 -0.094364114 0.27030838 0.29104272 0.075662 0.21199802 0.20247468 0.16328232
-0.08443285 -0.075939514 0.19496265 0.32109 0.18672088 0.33304018 0.16583717 0.25203976
-0.09468544 -0.016115032 0.5895924 -0.0028431013 1.5220609 0.2207613 0.18405156 0.17365713
0.17076878 0.20600818 0.33816233 0.46225452 0.24824326 0.10536359 -0.2647657 -0.032705646
0.19086358 0.3279037 0.09758668 0.24015982 0.67186224 0.5400271 0.27295658 0.12599969
0.101746224 0.19322455 0.46093524 0.3011454 -0.05686376 0.28272012 0.21760765 0.108535446
0.057046924 0.26099217 0.014511126 0.776058 0.09409301 0.43987957 0.15432368 0.31465685
0.25491056 -0.22601125 0.43659252 -0.15763658 -0.25165412 0.16949865 0.36840647 0.16800803
0.7059327 0.026455216 0.19325206 0.20200747 0.35724053 0.32034338 0.37112048 0.1378682
0.41051927 0.24214476 0.08160008 0.0053065345 0.41736203 0.22095567 -0.1628263 0.33203351
0.06773373 0.24339217 0.0209439 0.22843623 0.25111383 0.32509527 0.13311748 -0.13133773
0.28860623 0.31405246 0.028745836 0.22718324 -0.023498757 -0.09961035 0.36162418 0.07945668
-0.07911471 0.020832356 0.059636373 0.23685877 0.06088492 0.23235676 0.3017559 0.36442313
-0.102771856 0.3043859 0.116493 -0.17030732 0.46253482 0.3697232 0.3262981 0.09081057
0.39430928 0.22722387 0.18384148 0.21511084 -0.0474358 0.16153885 -0.040869307 0.26388806
-0.000476128 0.2569596 0.199418 0.10023015 0.5872474 0.33174887 0.1563256 0.06527462
0.27011004 0.2261714 0.3487598 -0.21318509 0.18159764 0.36242166 0.06603899 0.108229384
-0.10834845 0.22659722 0.38860777 -0.21611618 0.40078697 0.037460487 0.066905044 0.21723746
0.022892294 0.22949143 0.25659317 0.22464275 0.16475052 0.50259334 0.044942304 0.03811328
0.28971136 0.19422227 -0.09457708 -0.06581543 -0.05402166 0.2879111 -0.20543242 -0.047241744
0.31454486 0.06757436 -0.19296007 0.113314375 0.08164512 0.26512733 0.05362629 0.20031649

ln1.weight f4 [400]
00000000: 654a 813f d5e2 0240 bf59 b03f fb0a 1440
00000010: 3752 0a3f 5bf4 533f b32a 513f 7e1f 4a3f
00000020: ec25 db3f bb68 5b3f 9b93 5a3f 5af0 3d3f
00000030: 942c 923f b097 1040 11c6 cc3e 441c db3f
00000040: 8f87 b23d 05f6 a83f 693f ae3f a7d6 8f3f
00000050: 3bef 953f c7f7 983f bffa 383f 3d9a bd3f
00000060: 4560 873f ca8e 3f3f d6cb 5c3f 6b48 d23f
00000070: 6e36 153f cf9b 953f bbec 143f 4a64 a23f
00000080: 2c9c cb3f c130 893f 6834 183f d82a 883f
00000090: f17c d83f 50ee 063f aafb d43f 2f08 4f40
000000a0: 7279 c53f 2425 2640 75ee 1040 70c0 d53f
000000b0: feff 773f cfeb 153f 2201 ae3f 851e b13f
000000c0: 9890 0a3f 9682 b33f e5df aa3f fe3b be3f
000000d0: fc35 d33f 5008 883f d732 f63e c9c4 253f
000000e0: 2130 2b3f f5c2 ba3f 866d 903f 2bff 463f
000000f0: 9332 e83f 0e06 983e 7666 f23f 4153 0040
00000100: efc7 633f ab70 f73e 2ca5 743f e565 003f
00000110: ed21 673f 4182 b33f e1bc c13f 89e9 3b3f
00000120: 721c 173f 0044 7b3f 939b 843f 1b17 ab3f
00000130: 7422 a03f 4f77 7c3f 392b 843f ea72 773f
00000140: 350d d73e ef8b c93f 3cb2 c73f 323c 263f
00000150: 32c1 df3e 0348 473f e550 ee3f d5ec a43f
00000160: 2f4d 0240 bd6b e83f df63 413f 0468 653f
00000170: 0b13 cb3f bd1e 1040 f77b 1b40 5668 3b3f
00000180: b045 9e3f 377b 0940 cd1c a13f fcdf 253f
00000190: 82fe 733f 0a36 9b3f 7fd1 d73f 5486 c83f
000001a0: c08e 1840 c6d8 db3f c4db 963e dadc 1240
000001b0: d40b 023e 285f 613f 5b31 0540 6199 873f
000001c0: 8fdc 7a3f d880 883f 18ff d43e d18a af3e
000001d0: b8b1 6c3f 8506 7b3f 86d1 0640 26df d13f
000001e0: f20b 283f b5f1 8c3f 756e 563f f470 8c3f
000001f0: a1ae 9d3e 9a8d 3d3f 63a8 6b3f f22c 0440
00000200: fb8c 333f 3bf1 ab3f e762 823f 988c a43f
00000210: 6a8e b83f 31a4 8e3f 7486 9b3f 4933 683f
00000220: 3328 d13f 3671 2d3f bc72 483f d68c 793e
00000230: 0bcd a03f bdf8 063f cc85 3b3f b82c 9c3f
00000240: d21c b13f 3bf8 7540 73e6 ef3e a6ad b63f
00000250: e5ad 0040 e34d 993f 28f3 1c3f 0c92 da3f
00000260: 4bfd 7c3e 6899 f83f 33da 9d3f 5587 6e3f
00000270: c178 4e3f 94e1 613f 10f1 333f f6bc 483f
00000280: ad43 073f 9a21 573f 9db5 c53f 925a 463f
00000290: 2132 453f 733d 983f caab 2f40 e844 5d3f
000002a0: b990 e63f 1a9a 743f c868 513f 05b2 273f
000002b0: cbe0 c23f 3e90 9a3f 2c47 883f c502 0640
000002c0: a5c2 2f3f d22b 713f 237a 833f 887e 613f
000002d0: cd69 b93f 8721 1240 a468 523f 7a77 e03f
000002e0: 3bd3 a43f 524c d23f b09a 433f 7c6e fe3f
000002f0: 1431 903f d90c 5f3f 5049 893f a632 fa3e
00000300: 17ce c13f d83e 533f 574c a43f 16d9 f33f
00000310: 05fd 1b3f 5b60 1e3f 7f07 533f e1bb 613f
00000320: 8666 6c3f 122c 0b3f 2111 913f c3f1 123f
00000330: d611 d03f ca05 3a3f 9400 2640 0d8b 563f
00000340: 64e3 a73f 25d1 953f fdef 893f 4a84 f33f
00000350: 19ff af3e 250b 1a3f c2c1 243f d68a 1740
00000360: d438 ad3f 09ac 1e40 5819 843f 0bb8 c03f
00000370: 4814 2440 d8ad a33f a979 543f 0b0e 8d3f
00000380: 6a44 2e40 7ddb 2a3f 47c3 b73f 301d da3f
00000390: 097c fb3f a6c1 1840 131d a93f 1eb1 343f
000003a0: fb8a d93f e335 613f 4c65 bd3f c8af 7d3f
000003b0: f797 0d3f b3d9 bd3e c742 cc3f fdda 903f
000003c0: 804b 8c3f 6329 913f 7a00 b83f 9ff9 673f
000003d0: ce01 2740 e046 143f ae79 7740 9a5e d33f
000003e0: c635 803f 41aa 7a3f e9b2 2340 812c 553f
000003f0: af42 453f 29a4 533f f046 313f ec06 8b3f
1.0100828 2.0450947 1.3777388 2.3131702 0.540317 0.8279473 0.8170578 0.78954303
1.7120948 0.8570668 0.8538148 0.7419487 1.1419854 2.2592583 0.39994863 1.7118001
0.08717262 1.3200079 1.3613101 1.1237382 1.1713632 1.1950616 0.7225761 1.4812695
1.0576254 0.74827254 0.8624853 1.642835 0.5828618 1.1688174 0.5817372 1.2686856
1.5907035 1.0718004 0.59454966 1.0638075 1.6913129 0.52707386 1.6639302 3.2348745
1.5427687 2.596017 2.2645543 1.6699352 0.9687499 0.5856294 1.3594096 1.3837439
0.5412688 1.4024227 1.3349577 1.4862058 1.650085 1.0627537 0.48085663 0.64753395
0.66870314 1.4590746 1.1283424 0.77733105 1.8140434 0.2969212 1.8937519 2.0050814
0.8897695 0.48328146 0.9556453 0.5015548 0.9028614 1.4024125 1.5135766 0.7340322
0.5902778 0.98150635 1.0359977 1.3366426 1.2510514 0.9861955 1.032569 0.9665972
0.42002264 1.5745829 1.5601268 0.649356 0.43702084 0.77844256 1.8618437 1.2884775
2.035961 1.8157879 0.75543016 0.8961184 1.5865186 2.251876 2.4294412 0.7320608
1.2365017 2.1481454 1.2586914 0.647949 0.95310223 1.2125866 1.6860808 1.5665994
2.3837128 1.7175529 0.29464543 2.2947297 0.12699825 0.8803582 2.0811374 1.0593683
0.97992796 1.066432 0.4160087 0.34285596 0.9245868 0.98056823 2.1065383 1.6396224
0.6564323 1.1011263 0.83762294 1.097197 0.30797294 0.7404419 0.9205381 2.0652432
0.70136994 1.3432993 1.0186433 1.2855406 1.4418461 1.1143857 1.2150407 0.90703255
1.6340393 0.6775087 0.7830007 0.24370131 1.2562574 0.52723294 0.7325103 1.2201147
1.383692 3.8432758 0.46855506 1.4271743 2.0106137 1.1976894 0.61308527 1.707582
0.24705999 1.9421816 1.2332214 0.9317525 0.80653006 0.8823483 0.7028971 0.7841333
0.5283764 0.84035647 1.5446049 0.7748195 0.77029616 1.1893753 2.7448602 0.8643327
1.8012916 0.9554764 0.8180051 0.6550601 1.5224851 1.2075269 1.064672 2.093919
0.6865638 0.9420749 1.0271648 0.88083696 1.4485413 2.2832963 0.8219092 1.7536461
1.2876962 1.6429541 0.7640791 1.9877467 1.1264977 0.8712898 1.0725498 0.48866767
1.5141019 0.82517767 1.2835797 1.9050624 0.6093295 0.61865777 0.82433313 0.88177305
0.9234394 0.5436412 1.1333352 0.5740015 1.6255443 0.72665083 2.5937853 0.83805925
1.3116269 1.1704451 1.0776364 1.9024746 0.34374312 0.60173255 0.6435815 2.3678489
1.3532968 2.4792502 1.0320234 1.5056165 2.5637379 1.2787428 0.8299814 1.101991
2.7229257 0.6674116 1.4356469 1.7040157 1.9647228 2.3868194 1.3211998 0.7058276
1.6995538 0.8797285 1.4796538 0.99096346 0.55310005 0.37080154 1.5957879 1.131683
1.0960541 1.1340755 1.4375145 0.90615267 2.6094851 0.57920647 3.8668017 1.6513245
1.001641 0.97916037 2.5577948 0.8327103 0.77054876 0.82672364 0.6924887 1.0861487

ln1.bias f4 [400]
00000000: 1369 64be b872 78bd 3187 15be 8c2f 38be
00000010: a067 3fbf 46fc ffbe 6bc5 b2be 3235 bebe
00000020: 7839 48be baf6 1bbf ab0c 21bf 8e8f 06bf
00000030: 6cbf 6fbe d178 3e3e e991 34bf a060 70bd
00000040: 7bd2 6dbf fb9e 7cbe 68b4 a2bd 4764 e0bd
00000050: 0e26 24be 9e02 9abe 4b52 12bf 857d b2bd
00000060: 49c6 ddbe b53f c3be 8020 29be 9702 40be
00000070: a627 1cbf af79 2cbe f6b7 efbe e9c1 e7be
00000080: af66 46bc b7cd 15bf ebfd 21bf ec5c bebe
00000090: bf34 d4be 3169 3dbf 6676 31be edc4 163e
000000a0: e0a4 b2be abc2 453d e0d3 98bd 5b19 b4be
000000b0: 2b32 46be b3a6 e6be bfb7 95be 4016 8d3c
000000c0: 2d92 25bf 06ee c6be 8cf2 a6be 1a94 cfbd
000000d0: 347e 233e 13a3 22be 3e02 38bf 0419 d9be
000000e0: 43b5 34bf b49e a3be 7326 71be 2d7f cabe
000000f0: f0fb 7ebd cfe0 41bf 92ce a8bd 693d 93be
00000100: d256 eabe 303a 54bf 47f4 8cbe 236f 1fbf
00000110: 1fae cebe 518f 85be 589e efbe 6569 02bf
00000120: 549f 01bf 4744 b1bd 038c 2dbe 5efb 95be
00000130: e81e b8be 395b cebe a190 51be 4047 61bc
00000140: 9c2a 2abf 0a09 a7be b920 dabd c9f3 c8be
00000150: 1a72 38bf 2339 bebe cd37 98be f929 85be
00000160: d070 c3bc de31 17be e0d7 20bf 25d5 cabe
00000170: 9afa d5be a401 8abd 8785 2fbd 841f 11bf
00000180: 9f53 9abe 289b 21be 2dcb aebe b0a7 20bf
00000190: b208 d2be b87f 20be feb9 9dbe 0989 b0be
000001a0: e191 693e 6c31 a4bc a418 57bf c7fe 14be
000001b0: ab5d 62bf 83e3 f5be 6845 90be a0a4 1fbe
000001c0: 007e 1dbf f057 28bf bb11 4ebf 70f8 4ebf
000001d0: 73e6 a1be 2c74 87be c057 25be 22bb 94be
000001e0: 8464 d6be 68a6 33be eea6 03bf 47fe 7b3d
000001f0: 063d 4cbf 6cd7 88be 5b26 12bf 09f0 80be
00000200: 3f11 4dbf 9125 92be 0e2d 69be 13a3 14be
00000210: 2071 0b3b 032b 7cbe 70a7 d0be 5ff5 81be
00000220: da30 afbe 8914 0cbf b5ae 0dbf 70f4 67bf
00000230: 90d8 debe 301f 45bf 606c 12bf fff2 ddbe
00000240: 0801 87be 7501 bb3d 5a92 4ebf 6f38 9ebe
00000250: cd04 86bd c662 b5be 5c4e 21bf 7b3b 09bd
00000260: b048 3dbf b018 acbe e07f cdbe 714c 9dbe
00000270: f2d4 16bf 4c18 dcbe 40d6 f4be d8c8 27bf
00000280: 5f3a 29bf 2ba6 2dbf 1e77 88bd c03a 12bf
00000290: b3b3 00bf 88fe 97be 169f 7b3c 56be cabe
000002a0: 59ca 21be 6ec8 20bf fb72 ffbe f58f 06bf
000002b0: ab7f 4bbe 8205 d3bd 3d0f 8fbe a93c 1b3e
000002c0: 8a85 11bf 4ffb eabe 2ee5 8abe 60b4 8bbe
000002d0: 5fd5 94be 0286 b8be c853 d2be 1fc6 f8bc
000002e0: ed6b 89be 1ecc a9bd 02b0 2fbf 381f 173d
000002f0: a922 0bbf 63c6 ac3d ec67 113e a345 54bf
00000300: 7425 26be 868b cdbe 22da c1bb d187 31bd
00000310: 0ae2 39bf 31d4 0fbf d382 0cbf f06e fcbe
00000320: 9dc4 a3be 810f 30bf dbe5 ea3d 035f 16bf
00000330: d3ac b0be bcfb 83bd 68ac 58be 18f9 67be
00000340: 2b8a 8dbe af0f d0be 5beb 4ebe 26cd 36bc
00000350: 5ae1 59bf 50cb eebe ae32 16bf 1320 3abe
00000360: aa6c 76be 8971 693d f52f 99bd f5a1 1cbe
00000370: c80b cb3d c8c3 3e3c 7afa 13bf 9f0d f3be
00000380: 2d32 93bd 93da 00bf b70e 47be b4f7 27be
00000390: fd3b 7a3d 052a ad3c 3d10 17bf e6cd 1ebf
000003a0: 8ac1 c9bd a3f8 15bf 415d 20be b60f 67be
000003b0: bc7c 34bf cfda 59bf 6312 b3be 217a 37bf
000003c0: 9818 59bd 81df 7bbd 8c7b e2bd 65fe f5be
000003d0: acbd febd db98 3cbf 5cc6 943e f1ae 8ebe
000003e0: 1bad aebe 6218 14bf c2f3 fbbd d20c d4be
000003f0: 7971 e6be c693 efbe ffbd 10bf 7e56 08bf
-0.22305708 -0.06065628 -0.14602353 -0.17986888 -0.74767494 -0.49997157 -0.34916243 -0.3714996
-0.19553173 -0.6092335 -0.62909955 -0.525628 -0.23412865 0.18600775 -0.7053514 -0.0586859
-0.9289929 -0.24670021 -0.07944566 -0.109566264 -0.16030142 -0.30080122 -0.5715682 -0.08715347
-0.43315342 -0.38134542 -0.16516304 -0.18750988 -0.60998 -0.16843294 -0.4682004 -0.4526513
-0.012109443 -0.5851702 -0.63278073 -0.3718027 -0.41446492 -0.73988634 -0.17330322 0.14723559
-0.34891415 0.048281353 -0.07462287 -0.35175595 -0.19355075 -0.45049056 -0.2924175 0.017222524
-0.6467617 -0.38853472 -0.32606924 -0.1013567 0.15966111 -0.1588252 -0.7187842 -0.42401898
-0.70589083 -0.31957018 -0.23549823 -0.39550152 -0.062251985 -0.75733656 -0.08242525 -0.2875779
-0.45769364 -0.8290129 -0.2753012 -0.62278956 -0.4036722 -0.26085904 -0.46800494 -0.5094207
-0.5063374 -0.08655601 -0.16947941 -0.2929334 -0.3596108 -0.40303972 -0.20465328 -0.0137498975
-0.66471267 -0.32624084 -0.106507726 -0.39248493 -0.72049105 -0.37152967 -0.29730073 -0.26008585
-0.023857504 -0.14765117 -0.628294 -0.3961574 -0.41792756 -0.06738594 -0.04285195 -0.56688714
-0.30141923 -0.15781844 -0.34139386 -0.6275587 -0.4102226 -0.15673721 -0.30805963 -0.3447955
0.22809555 -0.020043097 -0.84021974 -0.14550315 -0.88424176 -0.4802514 -0.28177953 -0.15590143
-0.61520386 -0.6575918 -0.80495805 -0.80847836 -0.3162113 -0.2645582 -0.16146755 -0.2904902
-0.41873562 -0.17543948 -0.5142659 0.061521795 -0.79780614 -0.26726854 -0.57089776 -0.25183132
-0.8010444 -0.28544286 -0.22771093 -0.14515333 0.0021277145 -0.24625783 -0.40752745 -0.25382516
-0.34216958 -0.54718834 -0.55344707 -0.9060736 -0.435246 -0.77000713 -0.5719662 -0.43349454
-0.26367974 0.09131137 -0.80692065 -0.3090243 -0.065438844 -0.3542692 -0.6301019 -0.03350399
-0.7393904 -0.33612585 -0.40136623 -0.30722383 -0.5891868 -0.42987287 -0.4781971 -0.6554084
-0.6610469 -0.6783168 -0.06663345 -0.57120895 -0.502742 -0.2968638 0.015357753 -0.3959834
-0.15799846 -0.6280583 -0.4989241 -0.5256341 -0.1987292 -0.10303785 -0.27941313 0.15159859
-0.5684439 -0.45894858 -0.27127975 -0.27286053 -0.2906904 -0.3603974 -0.41079545 -0.030367909
-0.26840153 -0.082908854 -0.6862794 0.036895007 -0.5434976 0.08436277 0.141998 -0.8291876
-0.16225225 -0.4014551 -0.005915896 -0.043342415 -0.72610533 -0.56183153 -0.5488712 -0.4930339
-0.31985942 -0.6877366 0.11469623 -0.58738726 -0.34506854 -0.06444499 -0.21159518 -0.22653615
-0.27644476 -0.40636966 -0.20206968 -0.01115731 -0.85109484 -0.4663949 -0.5867108 -0.18176298
-0.2406489 0.05699304 -0.0747985 -0.15296157 0.099143565 0.011643358 -0.5780407 -0.4747133
-0.07187305 -0.5033352 -0.19439207 -0.16403085 0.061092366 0.0211382 -0.5900915 -0.62032926
-0.09851368 -0.58582515 -0.15660574 -0.22564587 -0.7050283 -0.850995 -0.34974965 -0.7167073
-0.05300197 -0.061492447 -0.11058721 -0.4804565 -0.12438521 -0.7367074 0.29057586 -0.27867845
-0.34116444 -0.57849705 -0.123023525 -0.4141603 -0.45008448 -0.4679243 -0.5653991 -0.53256977

fc2.weight f4 [300, 400]
00000000: 4f93 9d3d 248e ff3e 9376 9c3e a78e 653f
00000010: 87ae f1be 9038 c63e 1e0f ec3e c1a8 243f
00000020: 0f1c 4e3f 01f4 183e 86be e43f e9d5 643f
00000030: 79d0 c33e 58da 523f 82a0 3c3f c89a af3d
00000040: d6a6 2f3e b519 8c3f 3687 2a3f 5fbb e13e
00000050: 0811 8e3e 7487 bc3d f191 943d 9fde cf3d
00000060: 22bf 5b3f eb4f 413f e869 763f a6a0 243f
00000070: 982f 383f 066c 8e3f 23b8 e33e be10 493f
00000080: bc15 fa3e 11a8 b43f a1a7 c4be 4f92 713e
00000090: 07d6 073f 045b 4a3e cb83 9b3e 1794 883f
000000a0: 65b9 9dbe e027 f93e b31e 1c3f 0b55 623f
000000b0: 1064 c03f 1670 033f 3072 3d3f 89f2 353f
000000c0: 4ede e03e 1476 073f ae8f 7d3f fa24 423f
000000d0: a872 0f3f 8bda 153f d4b8 823f 3da4 133f
000000e0: bb33 943f 2b1e b83e 13da fa3e 7d34 f23e
000000f0: 16b7 743f 7c45 453f 57e8 5a3f e413 d83f
00000100: 95fb 2c3f 8529 0c3e fd3e 8a3f 1df7 503f
00000110: 60fb 2a3f 584c 5d3f 1c8b 943f 2b33 a83e
00000120: 8157 ec3e f825 2f3f 4f27 313f cf72 ef3e
00000130: 4fb4 e23d 83ab cf3e 7b00 083f 6ef1 c93e
00000140: 55ed 263f 8043 943e f8ca d13e 54d6 323f
00000150: 03b8 223f 85cb 3c3f 0be2 a13e 1b4d 8c3f
00000160: a3e0 143f 10ca a03e c132 773f d393 513f
00000170: 5994 5f3f f684 293f 7c57 573f bab8 243f
00000180: 1e4d 3c3f b88f d53e 487d 1d3f 68ac d33e
00000190: 50d4 3a3f 0264 323f 9aeb 4c3f f6dd 3f3f
000001a0: 27c5 133f d443 133f b26e b03e 6d80 083f
000001b0: 1f7b 2c3e c3db 3c3f a74a c73f c80a 033f
000001c0: 7089 453f 7554 873f 5fe6 523f bc1b 663e
000001d0: eef8 ed3d 4879 fb3e c2ca 6b3f 17aa 3c3f
000001e0: 0070 253f 6e2d ff3e 4b54 213f e7b9 c43e
000001f0: c92d 0e3f 0240 a23d 6990 7b3f f62e e73e
00000200: 441b 76be fd5d 733f 743e 3e3f d2c4 073f
00000210: 6d69 293e a125 993f 54d5 993e bf10 873e
00000220: b04c 733f 2c43 943f 34e2 303f c7bd f63e
00000230: 2ee3 d93f b512 d03e e57f 3f3e d16c 863e
00000240: b415 743e d277 a03f 70e3 073f 123d 853f
00000250: 47a9 183f 1efc 223f 39e1 543f 867a 4c3e
00000260: eaf4 673d c115 d43f 404e b23d 8061 3e3f
00000270: ef14 ec3e 0348 5d3f 45c1 0e3f 0aba 7c3f
00000280: 5e03 3f3f cbeb 873f 44df 133f 386d 0e3e
00000290: f899 b03e 8246 2e3f 8277 a13f b924 303e
000002a0: 236f 863f e490 3e3e 104d 963e e455 ef3e
000002b0: f63c 3e3f 152b 7a3f e745 343f 83ce 8c3f
000002c0: b9ec 0c3f 4b5a 083d 6afe 153f ad8c 093f
000002d0: 2dc0 a73e e4f8 aa3f 56eb 163f 5f64 6e3f
000002e0: adba a53f 368c 8e3f f1a8 9f3e 0391 5d3f
000002f0: d054 793f 3bc3 613f a5c8 983e c855 223f
00000300: d7bc 913e 9773 363f 3a95 c33e 56cd e53e
00000310: 77b8 103f 23e3 363f 2907 963f f56f 4d3f
00000320: 5153 633f 2d1c 403f 3ebe 103f b753 d23e
00000330: 85c8 983f 7468 9f3e 67bd 6d3f ebfc be3e
00000340: fc4b bf3e 1ea4 d63c 6db9 6f3f 384b ce3e
00000350: ea30 443f 0f95 113f ee9e c33e 4f28 823f
00000360: 83a7 d03e aa97 d43e 1524 083f 9949 053e
00000370: 406e 243f 1b37 2c3f e3f6 2a3f c01e 8b3f
00000380: 3ee3 1e3f d34c 423f 9009 063f 1727 b53e
00000390: d12a a13e e6be 2f3f 39ce 0a3f 4fb3 4b3e
000003a0: bc7c 1e3f b02d 773e c5a7 863e e804 783f
000003b0: 69d9 c03e b448 b23e 1453 d23e 76bb a73f
000003c0: ec80 be3e 6da4 063f d19d 933f a3c3 393f
000003d0: 4a96 493f 6d93 253f b84b 643f 90f3 ca3d
000003e0: 44f7 863f fc4a 5c3f a7cd 443f 3966 dc3e
000003f0: ee18 3e3e 30f1 e73e 71db 8e3e 42dd 4a3f
0.076941125 0.49913132 0.30559215 0.89670795 -0.47203466 0.3871503 0.46105283 0.6432
0.80511564 0.1493683 1.7870643 0.893889 0.3824499 0.82364416 0.73682415 0.08574444
0.17153487 1.0945345 0.66612566 0.44088265 0.2774737 0.09205523 0.072543986 0.101498835
0.8583852 0.7551257 0.9625535 0.6430763 0.7194762 1.1126716 0.44476423 0.7854117
0.48844707 1.411379 -0.3840914 0.23590969 0.53060955 0.19761282 0.30373988 1.0670193
-0.30805507 0.48663235 0.60984343 0.88411015 1.5030537 0.51342905 0.7400236 0.71073204
0.43919605 0.5291455 0.9904736 0.7583767 0.56034327 0.58536595 1.0212655 0.5767248
1.1578287 0.35960516 0.48994502 0.4730567 0.95591867 0.7705915 0.8551077 1.688107
0.67571384 0.13687713 1.0800472 0.81627065 0.6678982 0.86444616 1.1604953 0.32851538
0.4616051 0.6841731 0.69200605 0.4676728 0.110695474 0.4056054 0.53125733 0.3944201
0.6520589 0.28957748 0.40975165 0.6985829 0.6356203 0.73748046 0.3161777 1.0961031
0.5815527 0.3140416 0.9656182 0.81866187 0.87335736 0.6621851 0.84117866 0.6434437
0.7355517 0.4171121 0.6151929 0.41342473 0.72980213 0.6968385 0.80047 0.7494806
0.57722706 0.5752537 0.34459454 0.5332096 0.16843842 0.7377283 1.5569657 0.51188326
0.7716284 1.0572649 0.8238277 0.22471517 0.11619745 0.49115968 0.9210626 0.73697037
0.64624023 0.49839348 0.63019246 0.38423082 0.5553861 0.07922365 0.9826723 0.45153016
-0.24033839 0.9506529 0.74314046 0.530347 0.16544123 1.1964608 0.3004557 0.26379964
0.9503889 1.1582999 0.6909516 0.48191664 1.7022455 0.40639272 0.18701132 0.26254895
0.23836404 1.2536566 0.5308142 1.0409262 0.59633297 0.6366595 0.8315616 0.19968614
0.056630053 1.6569139 0.08706331 0.74367523 0.4610972 0.86438006 0.55763656 0.98721373
0.7461451 1.0618833 0.5776255 0.13908851 0.3449247 0.68076336 1.2614596 0.17201509
1.0502666 0.18609959 0.2935567 0.46745217 0.7431177 0.9772199 0.7041916 1.1000522
0.5504871 0.033289235 0.5859133 0.5373028 0.32763806 1.3357205 0.58952844 0.93121904
1.2947594 1.1136539 0.3118358 0.86549395 0.9739504 0.88188523 0.2984058 0.6341214
0.28464386 0.71270126 0.38199788 0.4488322 0.5653147 0.71440333 1.1720935 0.8024896
0.88799006 0.7504299 0.56540287 0.41079494 1.1936194 0.3113438 0.9286713 0.37302336
0.3736266 0.026201304 0.9364231 0.40291762 0.76637137 0.5686807 0.3820719 1.0168551
0.407528 0.4152196 0.53180057 0.13016357 0.6423073 0.67271584 0.6678297 1.0868759
0.62065494 0.75898474 0.5235834 0.35381386 0.3147798 0.6865066 0.5422092 0.1989262
0.6190908 0.24138522 0.26299873 0.96882486 0.3766587 0.34821093 0.4107901 1.3104084
0.37207735 0.52594644 1.1532537 0.7256414 0.7874495 0.6467808 0.8917804 0.09909737
1.054421 0.8605192 0.768763 0.4304674 0.18564197 0.453012 0.27901796 0.7924386

fc2.bias f4 [300]
00000000: 89f0 123f 79de 783e 381e ff3e e53e d13e
00000010: b1a9 bf3d 8f65 a53e ca9d 5c3f 5ad9 bd3e
00000020: 5dc5 0a3f 1c1b 293f f93f 923e 1373 053f
00000030: 4e0e 353e 6046 7b3f 95ae fb3e eea2 123f
00000040: 90ec bb3e 8a4c f23e 2847 2c3f eed9 743e
00000050: 1b37 ec3e d806 2e3f dae7 043f 8f43 053f
00000060: d9d7 f13e 0abc 043f ebe1 083f 9d07 0e3f
00000070: 46ad c83e d9ae 8c3e 7e7c 953f 8a1e bc3e
00000080: 6302 213f 11f4 d23e 9a3b 273f 27ff 573e
00000090: b789 b53e c860 bc3e 71b0 643f 17cf 0e3f
000000a0: 2679 f53e 16b4 fc3e 1460 cf3e e854 de3e
000000b0: a322 183f ec57 853e 6e4e a63f 3cd2 ae3e
000000c0: 3b73 933e dd83 043f 0a20 7b3e cb79 e93e
000000d0: bc83 053f 5e43 a83e 0136 c93e 572c 1f3f
000000e0: 1eef 233f f797 3a3f e20b 8d3e e4b0 2b3f
000000f0: 0e57 2a3f 0f32 223e e1b8 553f c33b 843e
00000100: dbd5 113f 3d4a 1a3f a90f a03f ccd5 4d3f
00000110: b637 a43e c6bc 983e 463b 1a3f 31e1 ca3e
00000120: 7e7f e03e dd39 1e3f 0ccc 843e 59da d73e
00000130: 6448 003f d1c7 ad3e e26d 193f f9b3 df3e
00000140: 8e3d 353e 8de2 8d3e 6c16 fe3e 6d68 3e3f
00000150: 61b9 2e3f 1fb5 3b3e 4fb3 db3e d9dd 3d3f
00000160: b466 6e3e 7004 203f 824d c53e 0024 113f
00000170: d994 2d3e bae2 dd3e b78e e43e d815 9b3d
00000180: 42dd 9a3e 79aa df3d 1321 c23e 3545 493e
00000190: dfc5 183e 85af db3d 70d7 353f 6979 ae3e
000001a0: dd0e c73e cf30 0b3f c86b c33e 385a 913e
000001b0: 5c9c 3f3f a8fd 263f 505a 0c3e f7ad 323e
000001c0: 8155 c23d 1f8d 22bd 8ece 953d 0884 1b3f
000001d0: 07c8 4e3f 9907 5f3f 66ab eb3e 89ac 853e
000001e0: 320d 9c3e 2885 8e3f 52a5 013f d194 1d3e
000001f0: 1778 bd3e b5ba db3e 9860 363d 3dcc 473f
00000200: 949c 093f fc38 213e 5f74 d63d ee7e 0b3f
00000210: 8aa3 b53e 513d b53e 9127 b43e a645 7f3f
00000220: 0431 a23e 9fb2 563e 4800 df3d 3f79 9f3e
00000230: 9591 013f 5ef8 9f3e 0f4d c73e 8ca6 693e
00000240: 5f97 063f ac1c c63e ea0a 9a3e 2553 b33f
00000250: a733 ab3e 1a2d 803e 8b32 a03f 75ff a23e
00000260: 8007 ed3e a1bf 973e bfc1 973e 7c09 9c3f
00000270: 1f71 443f ed33 ed3e d4c6 bb3e cab9 153f
00000280: 4ca7 f53e 2bc1 193f 2d3c ffbc 4374 f53e
00000290: 571a df3e cdc8 cd3e cf8d 2f3f 35d9 f13d
000002a0: 0725 6a3e 31a0 8c3f 319a cc3e 1370 973e
000002b0: 83a1 553f ca16 033f 4dbf fe3e 8fbd 5f3e
000002c0: bb97 213f b508 673f 0f0e f83e 2461 bc3e
000002d0: 0ebf 923e eb7d 003f e869 353e 6973 433f
000002e0: 3498 a63e 3fd6 673f 94b6 b1bd 610f 593e
000002f0: 06f4 8d3e c910 e73e 8532 2a3e 939d 083f
00000300: 7d93 1c3f 3058 8e3e 70b3 0f3f 4a09 883e
00000310: 21b4 513e ac03 943e 099b b33e be87 1e3f
00000320: 993a 1a3f 5134 01be e404 df3e 0ef0 b23e
00000330: bedd 383f b033 7c3f 6e00 103f 19ca 213f
00000340: 7497 ab3f daca a03e 11aa 093f 6a5b e63e
00000350: b8c0 bb3e b6dd 9b3e 5848 263f fae1 9c3f
00000360: eb07 013f 9e85 e03e 2540 a63f f3b0 5e3f
00000370: 438d fe3e 145c 343f 270f 443e 39d9 293f
00000380: 5605 c83e bfef c33e da4c d83e bcf3 e33e
00000390: 830d 4e3e 38fe bb3e a591 1e3e 9429 0a3f
000003a0: 1679 993e 6b90 e93e 06b8 3d3f 79fc 913f
000003b0: 5c88 a43e 5da8 e63e bd9e d73e d22d 9b3f
000003c0: d308 773e dfe9 3b3e 34c7 bf3e 4273 5c3f
000003d0: 94aa dd3e 21e1 c23e 2990 8b3f d3fe 273f
000003e0: 96f0 cc3d 9cbe e53e 69bc 333f 7d3f 493f
000003f0: 7eac ac3c a5f8 083f 96a6 ed3d 345c 153f
0.5739828 0.24303617 0.49827743 0.40868297 0.09358538 0.32304046 0.86178267 0.3707989
0.542074 0.6605699 0.28564432 0.52128714 0.17681238 0.9815426 0.49156633 0.5727986
0.3670392 0.4732402 0.67296076 0.23911259 0.46135792 0.6797919 0.5191628 0.5205621
0.4723499 0.51849425 0.53469723 0.55480367 0.39194697 0.27477148 1.1678617 0.3674205
0.62894267 0.41201833 0.6532532 0.21093427 0.3545663 0.36792588 0.8933173 0.55784744
0.4794399 0.49356145 0.4050299 0.43424153 0.5942785 0.26043642 1.2992685 0.3414477
0.2879885 0.5176371 0.2452394 0.45600733 0.52154136 0.32863897 0.39299014 0.6217703
0.6403674 0.7288813 0.27548128 0.6706679 0.66539085 0.15839408 0.8348523 0.25826845
0.5696694 0.6026953 1.2504779 0.80404353 0.32073754 0.29831523 0.60246694 0.39624932
0.4384727 0.6180704 0.25936925 0.42158774 0.5011046 0.3394151 0.5993329 0.43691996
0.17699262 0.27711907 0.49626482 0.7437809 0.68251616 0.18330811 0.4291024 0.7416664
0.23281366 0.6250677 0.38535696 0.56695557 0.16951312 0.4333704 0.44640133 0.07572526
0.3024693 0.10921187 0.3791586 0.19655307 0.14919232 0.10726837 0.71031857 0.34077004
0.38878527 0.5437135 0.38168168 0.28389144 0.7484796 0.652308 0.13706326 0.17449175
0.09488965 -0.039685365 0.07314788 0.6074834 0.8077397 0.8712097 0.46029204 0.26108196
0.30478817 1.1134386 0.50642884 0.153888 0.37005684 0.42915884 0.044525713 0.7804602
0.53754544 0.15744394 0.10471415 0.54490554 0.35476333 0.35398343 0.35186437 0.9971565
0.3167802 0.20966576 0.108887255 0.3114719 0.50612766 0.31244177 0.3892598 0.22817439
0.52574724 0.3869375 0.30086452 1.4009749 0.33437845 0.2503441 1.2515424 0.31835523
0.46294785 0.2963839 0.29640004 1.2190394 0.7673511 0.4632868 0.3667513 0.58486617
0.479792 0.60060376 -0.031156624 0.47940263 0.43574783 0.4019226 0.6857576 0.11809007
0.22865687 1.0986387 0.3996139 0.29577693 0.8344957 0.5120665 0.49755326 0.21849655
0.6312215 0.9024766 0.48448226 0.36792862 0.28661388 0.50192136 0.17716181 0.76347977
0.32537997 0.9056129 -0.08677402 0.21197273 0.27725238 0.45129994 0.16620834 0.5336544
0.6116255 0.27801657 0.56133175 0.26569587 0.2047887 0.2890905 0.3507922 0.61925876
0.6024566 -0.12617613 0.4355842 0.34948772 0.7221335 0.9851637 0.56250656 0.63199
1.3405595 0.31404763 0.53775126 0.44991618 0.3667047 0.3044259 0.6495414 1.2256463
0.50402707 0.43851942 1.2988325 0.86988753 0.4971715 0.70453 0.19146405 0.6634708
0.3906657 0.3826885 0.42246133 0.44521892 0.20122342 0.3671739 0.15485246 0.53969693
0.29975194 0.45617995 0.7410892 1.1405174 0.32135284 0.45050326 0.42113295 1.2123358
0.2412446 0.18350933 0.37456667 0.8611337 0.43294203 0.38062385 1.0903369 0.65623206
0.100068256 0.44871986 0.70209366 0.786125 0.021078344 0.535044 0.11604039 0.58343816

ln2.weight f4 [300]
00000000: a733 723f 4d1a e83f 3eb0 a83f c406 1740
00000010: 00bb d23e e620 7f3f ae7a 113f 06d3 a93f
00000020: a0d6 583f 95cf 793f 855f 0e40 1fa1 993f
00000030: 0074 0340 9bc0 7d3e c553 de3f aa5d dc3e
00000040: a445 de3f 117e 9c3f e0ee f73e 9f61 8140
00000050: 6861 963f a96b 673f efaa 193f 5e77 753f
00000060: 5c3f 8d3f 1350 9a3f d13d 733f 6312 ed3e
00000070: f6ec 933f c1b0 823f a77d ad3e d3c8 de3f
00000080: 7a9e 543f 823f ea3f e95b 5b3e 561a 0140
00000090: b2e9 b93f f459 f93f 3e25 0d3f 51dc 083f
000000a0: b67d fb3e 1561 d23f a6df d23f fd2c 4b3f
000000b0: fcf7 f23e dc1d d13f 8a2a de3e 325d 9b3f
000000c0: 3d23 0940 24e3 293f ca37 0f3f 411c ec3f
000000d0: 9b1d 013f 39a5 4040 fda5 9e3f a6cc 273f
000000e0: bb11 473f b5a1 633f fa6d 1140 a651 813f
000000f0: 93a8 d93e 001d 0d40 bd56 043f 80b5 fd3f
00000100: 386c 523f b2e3 1c3f a68c 243e 5f9e 323f
00000110: 17b7 d73f 0436 123f b247 0b3f d800 d23f
00000120: f05f c63f 404e 793f 47dc fb3f 8da6 c03f
00000130: b77f 573f 7a7b 9e3f 28f2 403f b9c3 883f
00000140: 416e c83f b713 df3f def8 053f 6f3a 0b3f
00000150: 9ec4 343f dbb0 1f40 d69d ca3f 9b7c d63e
00000160: 6497 7c3f 298e 873f 5320 c83f ca0e 813f
00000170: 6e95 e53f 7d6d 403f 0d21 dd3f bcfa f03f
00000180: e5b5 b63f 26d0 0f40 a912 ba3f ee6f cd3f
00000190: a97b f83f 8612 4540 3d4d 5e3f 8dfe d53f
000001a0: c3de a83f 723c 983f 4b3f 9d3f 657c 963f
000001b0: 95f2 c33e db54 e73e 288a e63f 8e57 1140
000001c0: 99f6 2140 a2fc 3140 59b8 3b40 9a8f 4c3f
000001d0: 4122 f13e db0c df3e 1cad f93f 45fc 7e40
000001e0: d01e 2640 c1dc 1b3f 7d42 a03f b6e6 903f
000001f0: d057 3540 c97f cf3f 30cc 6d3f d1f3 c33e
00000200: 28b4 7a3f c2a6 0040 5b61 3240 8dda 893f
00000210: 8853 c03f 10a1 6b3f 38e0 c23f 0b4b 6f3e
00000220: 0391 8c3f aa27 c13f 36ff fe3f 303d 6e40
00000230: 8f2d 773f b056 3a40 758c f03f 95d7 ec3f
00000240: e277 893f c7f7 c33f d847 e83f c516 1b3e
00000250: dd60 8840 5df8 bc3f 790c dc3d 41b0 923f
00000260: 6c2c 343f 043e cf3f e9bc c73f e1cf 533e
00000270: 1ddf cb3e 36e6 093f 2151 0940 61fd dd3e
00000280: 0266 883f 7c4c 593f e6e0 5840 d57b 9c3f
00000290: 189d 473f e490 bb3f 64ba 763f 026f 1e40
000002a0: 0582 fd3f b4cc 8b3e cc5c 9b3f 3e7e c93f
000002b0: 0673 2f3f 132e 833f 9408 013f 6e89 e13f
000002c0: e4f3 1f3f 7dab e03e b048 793f 5972 0340
000002d0: 439f 1d40 7541 a43f ac1f 2340 272c b23e
000002e0: 0aa3 3240 cdbe 953e 9998 5f40 7f2c 3240
000002f0: 464f e33f 82a5 833f 0715 a23f f2cc a23f
00000300: e6d0 1f3f 4d37 2840 f441 113f d5cd a83f
00000310: 8d4f 3240 968a 7c3f e684 d53f d629 3e3f
00000320: 9508 1b3f b821 6840 f3a1 d33f 328d c03f
00000330: 4010 f83e eae3 d93e 9bed c03f 15b7 3e3f
00000340: c567 1a3e 95b3 e43f 2f47 a83f bac0 9f3f
00000350: c1bb d73f e604 ca3f 1d9d 603f 4b3b 623e
00000360: 627d 153f 448a e23f 2c72 a93e 8da5 1f3f
00000370: f815 f13e 2fc4 5b3f dd46 4b40 196a 7e3f
00000380: 4e2d b03f 6313 b73f 871e a43f f53d 3b3f
00000390: f45b 2440 bcd3 9b3f 0198 8140 f3c6 c23f
000003a0: dcc5 4d40 df57 b93f d207 033f 7f5f 2e3e
000003b0: 746c bb3f d002 983f ff60 b73f a76d 3e3e
000003c0: 9931 b93f b935 f73f fc4c ba3f 2259 e63e
000003d0: 257e 953f 5f2e 8d3f 59a5 0e3f 2972 863f
000003e0: 4c99 3640 2588 063f 53ab 7e3f 6573 de3e
000003f0: 33ad 1e40 be19 6a3f 83f5 4840 f2fb 7b3f
0.94610065 1.8133026 1.3178785 2.359788 0.41158295 0.99659574 0.5682782 1.3267524
0.8470249 0.9758237 2.22458 1.2002295 2.053955 0.24780504 1.7369314 0.4304021
1.7365003 1.2225972 0.48424435 4.0431666 1.1748476 0.9039865 0.6002645 0.95885265
1.1034961 1.2055687 0.950162 0.4630309 1.155669 1.0210191 0.33884928 1.7405037
0.83054316 1.8300631 0.2142178 2.0172324 1.4524443 1.9480577 0.5513495 0.53461176
0.49119347 1.6435877 1.6474502 0.7936552 0.47454822 1.6337237 0.4339183 1.2137816
2.1427758 0.66362214 0.559445 1.8446122 0.504358 3.0100844 1.2394406 0.65546644
0.7776143 0.8891862 2.2723374 1.0103042 0.42511424 2.204895 0.5169485 1.9821014
0.8219638 0.61284935 0.16069278 0.69772905 1.685275 0.5711367 0.54406273 1.6406507
1.5498028 0.97385025 1.9676598 1.5050827 0.8417925 1.2381432 0.753695 1.068473
1.5658647 1.7427891 0.52332866 0.5438604 0.70612514 2.4951694 1.5829418 0.4189194
0.98668504 1.0590259 1.5634865 1.0082638 1.7936227 0.75167066 1.7275711 1.8826518
1.427426 2.2470794 1.4536945 1.6049783 1.9412738 3.0792556 0.86836606 1.6718308
1.3192981 1.1893446 1.228494 1.1756712 0.38271013 0.45181927 1.8010912 2.270969
2.5306761 2.7810445 2.9331267 0.7990662 0.47096446 0.43564495 1.9505954 3.9841473
2.5956306 0.6088372 1.2520291 1.1320407 2.8334846 1.6210872 0.9288969 0.38271955
0.97931147 2.010178 2.787192 1.0769821 1.5025492 0.92042637 1.5224676 0.2336847
1.0981754 1.509023 1.9921634 3.7224846 0.9655389 2.911541 1.8792864 1.850329
1.073971 1.5309991 1.8146925 0.15145405 4.261824 1.4763294 0.107445665 1.1460038
0.7038028 1.6190801 1.5604526 0.20684768 0.3981866 0.538669 2.1455767 0.43357375
1.065613 0.8488233 3.3887267 1.222529 0.7797408 1.4653592 0.9637816 2.4755254
1.9805304 0.27304614 1.2137694 1.5741651 0.68534887 1.0248436 0.50403714 1.7620065
0.6248152 0.43880835 0.9737654 2.0538542 2.4628456 1.2832476 2.548808 0.3479931
2.791201 0.29247132 3.4936888 2.7839658 1.7758567 1.0284884 1.2662667 1.2718794
0.6242813 2.6283753 0.5674126 1.3187815 2.7861054 0.98648965 1.6681182 0.74282587
0.6055997 3.627058 1.6533798 1.5043089 0.48449898 0.42556697 1.5072511 0.7449811
0.15078647 1.7867304 1.3146724 1.248069 1.6854173 1.5782745 0.87739736 0.22092931
0.58394444 1.7698445 0.3309492 0.62361985 0.47087073 0.8584623 3.1762002 0.9938064
1.3763826 1.4302791 1.2821816 0.73141414 2.5681124 1.2173991 4.049805 1.5216964
3.2152014 1.4479941 0.5118381 0.17028616 1.4642472 1.1875858 1.4326476 0.18596517
1.4468261 1.931327 1.4554744 0.44989878 1.1679121 1.1029776 0.5572105 1.0503589
2.8531065 0.5255149 0.9948017 0.43447414 2.4793212 0.9144553 3.1399848 0.98431313

ln2.bias f4 [300]
00000000: 1457 11bf e67e abbf 00b4 8ebf 1581 51bf
00000010: 2675 01bf 0049 54bf 71bc 88bf 874c 23bf
00000020: e75f a5bf 47e8 64bf 99bb 8abf a4f0 a8bf
00000030: 63a0 1fbf 8d62 82bf f8b7 f6bf c8fe 7bbf
00000040: 08a2 86bf 1205 69bf 9f46 47bf 5496 52bf
00000050: 3011 c7bf 353c c0be 883c 50bf e375 0ebf
00000060: 52ab 8bbf 82b0 7bbf f60e 2cbf 5f17 43bf
00000070: 7a84 3ebf 366e 3ebf 55da 7abf a8a4 58bf
00000080: 4289 77bf 0422 c5be 5db6 86bf 1e4f e0bf
00000090: bb6a 79bf f5a2 8cbf 3110 8dbf 785c 24bf
000000a0: 5f86 3ebf 8011 bfbe 0e0f cfbf 52ac 6ebf
000000b0: d4b0 97bf e548 9dbf 54c0 32bf 3fff 07bf
000000c0: 46c2 83bf 3244 9abf 2904 5cbf 0619 99bf
000000d0: 222c 5cbf 3fae 3fbf ca36 7bbf 0dc3 5bbf
000000e0: d741 abbf 4542 3dbf 89f1 b1bf fdff 03bf
000000f0: 1e14 1fbf 7647 96bf 2437 4bbf a065 67bf
00000100: 8a85 59bf 0ac5 6ebf b7e7 2cbf dbe6 7ebf
00000110: db05 1abf 1ea9 73bf 10a4 37bf 58a1 5abf
00000120: 8f5b 7fbf bb5d 90bf 7b71 a5bf cd63 61bf
00000130: 65ab 6dbf 201a 82bf 9498 59bf ea4d 69bf
00000140: a3d5 6bbf 8ccc d3bf 064c 74bf 63f6 42bf
00000150: 69db ccbf ef65 49bf 06c9 adbf 9071 82bf
00000160: f11a 26bf 8539 1dbf 81c4 5fbf 5186 19bf
00000170: 6db8 8cbf 16ee 2abf c90c 38bf 8fd1 83bf
00000180: 8e4d cfbf e179 a1bf 48a1 74bf 5437 8abf
00000190: 78ef 65bf ab75 95bf b8c7 49bf 9302 18bf
000001a0: ec86 55bf b550 8cbf c5a5 4abf bd65 96bf
000001b0: f50d 2cbf caf1 51bf 5c88 a4bf f91e 76bf
000001c0: f792 a7bf e8dd 98bf a3d9 03bf 9e5b 5dbf
000001d0: 7da5 5bbf 55f5 32bf 8058 9ebf 88df 8dbf
000001e0: 8e3d 32bf a9df 3abf 31e3 8ebf d155 7bbf
000001f0: fb19 22bf 9835 77bf a78c f0be 3a11 7dbf
00000200: 03a2 69bf 26de 38bf 6dfa 9cbf b17a 86bf
00000210: 52f9 81bf b31c 81bf b30d 3bbf b5ed 92bf
00000220: d8d2 53bf e4e8 83bf e7df babf aa79 38bf
00000230: 3793 8abf 3a5f 88bf e537 80bf 1e99 b5bf
00000240: 633f 9abf 1734 7bbf 29e0 ccbf 5228 5ebf
00000250: f7dd 49bf 6d4e 9cbf 81ea 4dbf 5f3d 8cbf
00000260: 73cd 84bf f2fe 5dbf b9bf 8bbf 4068 38bf
00000270: c21b 52bf 5290 4ebf a14c a1bf 09d0 5ebf
00000280: e4e7 40bf 70bb a4bf 9226 83bf 872d 9bbf
00000290: a8bd 3bbf 230b a8bf c52a 88bf da34 9bbf
000002a0: 5898 98bf 1546 8abf 236b 4cbf 490b 84bf
000002b0: b620 8ebf 6108 8fbf 28b8 6dbf 7b0d e7be
000002c0: df78 47bf b254 56bf a659 8fbf dc69 98bf
000002d0: 1dfc a2bf 319f b1bf ccc7 a6bf 4fbd a8bf
000002e0: dfcc 5ebf 2d24 8fbf ca1d 63bf d9df 2fbf
000002f0: d931 73bf 6b60 9dbf dea4 98bf 5b4d 6fbf
00000300: 2461 a6bf d6ad 57bf 4220 60bf e29f 72bf
00000310: bae6 77bf b3b2 6abf 7976 e7bf dab8 73bf
00000320: 3522 71bf 6907 9fbf 8933 81bf ca04 98bf
00000330: b510 41bf edd7 80bf dc51 54bf 139c 80bf
00000340: 8649 1ebf 7675 e0be 6cf5 89bf e4f7 87bf
00000350: d8bb 6cbf 9265 6fbf c7b0 4bbf 4c88 83bf
00000360: f8ca 49bf 649d 3ebf 7ee9 54bf 9b80 f5be
00000370: f2d0 35bf b601 47bf 92e0 8ebf 6a56 8bbf
00000380: e609 b5be 8459 5fbf c180 52bf 7743 62bf
00000390: ec59 9fbf b830 40bf 0e6d 6abf 5524 a1bf
000003a0: e077 90bf d481 64bf f947 58bf c905 54bf
000003b0: 6650 58bf 7009 5dbf 6958 02bf 40f0 32bf
000003c0: 0cca 3fbf e474 abbf ef6b 56bf b7d3 5bbf
000003d0: ff32 4bbf a70b 16bf 28c0 0fbf 83d4 1bbf
000003e0: c2f9 a5bf 93a7 76bf a5cc 08bf e119 5cbf
000003f0: 98a1 a1bf 53e1 76bf 8d6c 8abf c773 74bf
-0.56773496 -1.3398101 -1.1148682 -0.8183759 -0.5056938 -0.8292389 -1.0682508 -0.63788646
-1.2919892 -0.8941693 -1.08385 -1.3198438 -0.62354106 -1.0186325 -1.9274893 -0.9843564
-1.0518198 -0.9102336 -0.77842134 -0.8226063 -1.555212 -0.37545934 -0.81342363 -0.5564863
-1.0911658 -0.98316205 -0.6721033 -0.76207536 -0.74420893 -0.7438692 -0.979894 -0.84626245
-0.96693814 -0.38502514 -1.0524403 -1.7524145 -0.9742848 -1.098723 -1.1020566 -0.64203596
-0.74423784 -0.3731804 -1.6176469 -0.9323169 -1.1850839 -1.2287871 -0.6982472 -0.5312385
-1.0293663 -1.2052062 -0.8594385 -1.1960762 -0.8600484 -0.74875253 -0.98130476 -0.858445
-1.3379468 -0.73929244 -1.3901836 -0.5156248 -0.6214007 -1.1740558 -0.7938101 -0.9038944
-0.8496939 -0.9326941 -0.6754107 -0.9957101 -0.60165185 -0.9517993 -0.71734715 -0.8540244
-0.9974908 -1.1278604 -1.2925256 -0.8804291 -0.9283965 -1.0164223 -0.8499844 -0.9113451
-0.9212286 -1.6546798 -0.954285 -0.76157206 -1.6004459 -0.78671163 -1.3576972 -1.0190907
-0.6488486 -0.6141589 -0.87409216 -0.59970576 -1.0993782 -0.6676954 -0.7189451 -1.0298327
-1.6195543 -1.261532 -0.95558596 -1.0798135 -0.89818525 -1.1676534 -0.7882037 -0.5937893
-0.83409 -1.096213 -0.79159194 -1.1749798 -0.67208797 -0.82009566 -1.2854114 -0.9614101
-1.3091725 -1.194272 -0.5150396 -0.8646792 -0.8579939 -0.69905597 -1.2370758 -1.1083841
-0.69625175 -0.7299753 -1.1163083 -0.9817782 -0.63320893 -0.9656615 -0.4698231 -0.9885441
-0.91262835 -0.7221397 -1.2263924 -1.0506192 -1.0154212 -1.0086883 -0.7306778 -1.1478792
-0.827436 -1.0305448 -1.459958 -0.72060645 -1.0826176 -1.0654061 -1.0017058 -1.4187353
-1.2050594 -0.9812636 -1.6005908 -0.86780274 -0.78854316 -1.2211434 -0.8043595 -1.0956229
-1.0375198 -0.8671714 -1.0917884 -0.7203407 -0.82073605 -0.80688965 -1.260151 -0.87036186
-0.75353837 -1.2869701 -1.0246146 -1.2123269 -0.7333627 -1.3128399 -1.0638052 -1.2125504
-1.1921492 -1.0802637 -0.7985098 -1.0315944 -1.1103733 -1.1174432 -0.92859125 -0.45127472
-0.7791881 -0.83722985 -1.1199234 -1.1907306 -1.2733189 -1.3876706 -1.3029723 -1.3182772
-0.8703136 -1.1182915 -0.8871733 -0.6870094 -0.94997936 -1.229505 -1.1925313 -0.9347741
-1.2998395 -0.8424963 -0.8754922 -0.9477521 -0.96836436 -0.91678923 -1.808303 -0.95203936
-0.9419282 -1.2424136 -1.0093852 -1.1876462 -0.7541612 -1.0065895 -0.8293741 -1.004763
-0.6183094 -0.43839616 -1.0778022 -1.0622525 -0.92474127 -0.9351436 -0.79566616 -1.027597
-0.7882533 -0.7445891 -0.8316878 -0.4794968 -0.7102195 -0.77736986 -1.1162283 -1.0885746
-0.35359114 -0.87245965 -0.8222771 -0.88384193 -1.2449317 -0.7507434 -0.91572654 -1.2589213
-1.1286583 -0.892606 -0.8448482 -0.8282133 -0.8449768 -0.86342525 -0.50916153 -0.6989784
-0.74917674 -1.3395047 -0.83758444 -0.85869926 -0.7937469 -0.5861153 -0.5615258 -0.6087114
-1.2966845 -0.9634945 -0.5343726 -0.8597699 -1.262744 -0.9643757 -1.0814377 -0.9548916
