checkpoints/DDPG/Actor/DDPG_actor_1000.pth (torch_old, 505214 bytes, 10 tensors)

fc1.weight f4 [400, 8]
00000000: 48ab 5cbe c6c9 5cbd c3a4 0abf cd7b 8abe
00000010: e702 d93f a76a cd3e 6935 6cbe 02d2 04bf
00000020: 4ec6 20be aa0e c13e 02c9 293e 7611 c83c
00000030: 9065 583e 5822 4bbf 4586 55bd a92e 633e
00000040: 3819 e93e dd70 8a3e 2aa5 a6be 3a85 913e
00000050: 6793 a1bd 204a 7ebc 7501 d9ba b1cb b6bc
00000060: 3670 0d3f dbfa 02bc 45c1 48bf afd6 0d3f
00000070: 4908 c03e 8d7b 523e f323 193e cf90 3b3d
00000080: 8d5f da3e e1c2 373f 1227 fabd daaf 36be
00000090: 80fd 2abf fb5d ad3e 2740 733e 0e9b 263f
000000a0: 690b 653d aebd 8fbe e3eb e8be 7b81 c63f
000000b0: c321 383e dea1 d3be 09fe 973e 61d1 3f3e
000000c0: 05c2 963d 52c8 42be 95c8 0e3f 7bd7 8cbe
000000d0: 4b99 86bf c791 2b3e 7ee9 243e 0e08 2d3e
000000e0: d4eb 0fbd b5d4 d63d b7c4 ab3e 40b7 5abd
000000f0: 7f93 963e 03c2 5e3e fdb5 65bd 022f f73c
00000100: a769 a6bd 920c 003e 2caa c43d d46c f53c
00000110: 6d6a fc3d 0242 0d3e 50ef 9cbe 9aea e73e
00000120: 7189 c4be 1aa2 193f 32b3 173f 319a e23c
00000130: 88c2 04bf 6a81 913d c674 fb3e ae0c a03e
00000140: 2915 843e 6122 043f f24f a7be 7b3d 843d
00000150: 9cb8 42bd c285 20bf c101 9d3e 25df 8b3e
00000160: 0887 f03e 57a7 bb3e 15c4 d63e 7716 8bbe
00000170: 1d82 e7be f44a 84be de79 be3e 9f98 c73e
00000180: e3bc 14bf b824 fb3d 7487 48bf e1ab 46be
00000190: 1c96 193d f96f a8be 6360 cd3e 1851 cebb
000001a0: 19f7 123f 7c61 a0bd 3811 4a3f d7f4 7cbb
000001b0: 6a74 2bbf 663d 433c 20ca 443e 1d26 b5bd
000001c0: bc49 1c3f dc63 403f 1dd0 a939 a3dc 06be
000001d0: 9bc4 d9be cfba 2f3f 1ae2 2a3f d9d9 fa3e
000001e0: 6338 913e 44d5 62be 3cf5 d13e ff69 98be
000001f0: 9f69 07bf c653 9fbd baef 86bd 4870 12be
00000200: c342 233f d61c d73f e8ab ea3e f675 cbbe
00000210: 74bc d8be 2fe9 52be f970 2d3f 2fad 1f3f
00000220: ef84 8ebe 7629 a23b 30af 25bf 5046 51be
00000230: e984 403f cd5f febd 4188 e1be 214c 1b3e
00000240: 423a b33e 0ceb a63e b39b 303e 2654 d6be
00000250: d7b1 cfbf 2ac3 07bf e92d a23e 59c2 cf3e
00000260: 8e31 d7bb 1f0a 0d3e 894f b13f 8691 243e
00000270: 7092 bfbf 0a44 ffbe f2dc 3f3e 9a7d fabc
00000280: 934d a1be 9bd2 293e 7e99 7cbf 9cc5 a0be
00000290: 34bc 39bf 33f1 e93e f5ed 023e 15af 9abe
000002a0: f081 ea3b a822 1a3f 0b89 e03e 5507 a93e
000002b0: fc88 d6bd d4da 1f3e 24be e73e 73fa 113f
000002c0: 7838 cbbe 4fc1 963e 6942 313f 03dc cf3e
000002d0: 4881 a7bd af6e b23e 4050 d1bd 65c4 f73e
000002e0: 467a 9e3e 4a38 8f3d 24cc c5be 4f5d 1dbf
000002f0: a7de 9d3f 5878 173f bee8 8b3e c3ea bb3d
00000300: 4f2b dfbe c347 763e 0aef 2b3d d0c5 d13e
00000310: 7ae8 823e dea2 c13e a134 a53d a828 333e
00000320: 481b e53d 0898 873e a14e 103e 936a ca3f
00000330: 02c3 983d 7d47 8ebe c1be 523e 7da0 213e
00000340: 5ece 2d3e 1240 0a3f 4cff 77be 4f7f 7fbd
00000350: ac83 c8be ab81 943d 60c3 0d3e 9599 be3e
00000360: a363 303e f036 363e c9fc 163f 55ac 223e
00000370: 7caa 65be ce8e 843f 57a1 f63e 817f 393e
00000380: 1a83 6cbe 1ba6 ba3e f4ea b5bf fc48 363e
00000390: 4ea4 383e 7c92 31be 257b 1e3e b38f a53e
000003a0: adac 10be 2812 3e3c 72cc bc3e 2fdb 49bf
000003b0: 9394 1ebf 078c cebe 2241 7cbe d3d8 693e
000003c0: 40dd 9f3e 0352 073f 55d0 c43e 9063 90be
000003d0: 6839 ba3e a0b4 7dbf eb8d e13d 2eab da3e
000003e0: 9ae5 adbe 7909 8abe 1a32 163e 7f6b 9a3e
000003f0: 1c70 4e3d 3471 3e3d fa8d e0ba e24a 403e
-0.21549714 -0.053903364 -0.54157656 -0.27047578 1.6954011 0.40120432 -0.2306725 -0.51882946
-0.15700647 0.377065 0.16580585 0.024422389 0.21132493 -0.7934928 -0.052130003 0.22185768
0.45527053 0.27039233 -0.32547885 0.28421956 -0.07889443 -0.015520602 -0.001655622 -0.022313925
0.55249345 -0.007994379 -0.78419906 0.55405706 0.3750632 0.20554943 0.1495512 0.045792397
0.42651024 0.71781737 -0.12214483 -0.1784052 -0.6679306 0.33860764 0.23754941 0.65080345
0.055919085 -0.28074402 -0.45492467 1.5508264 0.17981629 -0.41334432 0.29686 0.18732215
0.07361225 -0.19021729 0.55774814 -0.2750815 -1.0515531 0.16754828 0.16104695 0.16897604
-0.035137013 0.104897894 0.3354852 -0.053397417 0.29409406 0.21753697 -0.05608176 0.030173782
-0.0812562 0.12504795 0.0960277 0.02995912 0.123249866 0.13794711 -0.3065133 0.45296174
-0.3838611 0.6001297 0.59257805 0.027661415 -0.5185933 0.07104762 0.4911253 0.31259674
0.25797394 0.5161496 -0.3267818 0.06457039 -0.04753934 -0.627041 0.306654 0.27318683
0.4697802 0.36651108 0.41946474 -0.27165577 -0.45216456 -0.25838435 0.37202352 0.38983628
-0.5810072 0.12262863 -0.78331685 -0.19401504 0.03749667 -0.32897928 0.401126 -0.006296288
0.5740829 -0.07831094 0.78932524 -0.0038598084 -0.6697451 0.011916494 0.1921773 -0.0884516
0.6105001 0.75152373 0.00032389248 -0.13170104 -0.4253281 0.6864442 0.66751254 0.4899433
0.28363332 -0.22151667 0.4100741 -0.2976837 -0.5289554 -0.077796504 -0.06588693 -0.14300644
0.63773745 1.6805675 0.4583428 -0.39738435 -0.42331278 -0.20596765 0.6775051 0.6237363
-0.27835795 0.00494879 -0.6472044 -0.20436978 0.75202805 -0.12420616 -0.44049266 0.1516576
0.35005385 0.32601202 0.17246895 -0.41861075 -1.6226147 -0.5303217 0.31675652 0.40577963
-0.0065671867 0.13773392 1.3852397 0.16071138 -1.4966564 -0.49856597 0.18736628 -0.03057747
-0.31504497 0.16584246 -0.9867171 -0.31400764 -0.725528 0.45691833 0.12786086 -0.30211702
0.007156603 0.6020913 0.43854555 0.33013406 -0.104753464 0.1561082 0.45262253 0.5702278
-0.3969152 0.29444358 0.6924196 0.40597543 -0.08178955 0.3485007 -0.102203846 0.48392025
0.30952662 0.06993158 -0.3863231 -0.614705 1.2333573 0.59168005 0.27326006 0.091756366
-0.4358773 0.24050812 0.041976012 0.4097123 0.2556799 0.3781957 0.08066679 0.17495978
0.11186844 0.26483178 0.14092495 1.5813774 0.0745907 -0.27788916 0.2058058 0.15783878
0.16973254 0.54004014 -0.24218482 -0.06237727 -0.39162958 0.07251295 0.13844061 0.3722655
0.17225508 0.17794394 0.5897947 0.15886052 -0.22428316 1.035608 0.48169968 0.18115045
-0.23096886 0.36454853 -1.4212327 0.17801279 0.18031427 -0.17341036 0.15476663 0.32336196
-0.1412837 0.0116010085 0.3687473 -0.7885007 -0.61945456 -0.40341207 -0.24634221 0.22836618
0.31223488 0.52859515 0.38440195 -0.2820096 0.36371922 -0.99103737 0.11013397 0.42708725
-0.33964235 -0.26960352 0.1466755 0.30160138 0.050399885 0.046494678 -0.0017132156 0.18778566

fc1.bias f4 [400]
00000000: 4c29 403e b55d 11be 85ef f33c d379 9fbc
00000010: 927c 6d3e 701c b43e f9e8 9c3e a60a c23e
00000020: 710c 7e3d 2ee3 0bbe c2f2 a5bc 00af 0c3e
00000030: ec9f b33e 24d1 433e eed1 a93e 9fb8 483e
00000040: 34b0 ef3f 9781 0d3e 37c5 fd3c 8a74 223e
00000050: 1f94 cf3d d823 04be a9f1 963e 7993 dc3d
00000060: d4cb 0e3e d922 9b3e 59b0 423e acb7 1b3d
00000070: 163b 5e3e aabe 5a3e 069d b23e 0dd1 1a3e
00000080: 9174 773e 3f8a b0bd d791 dc3e 9dd2 233e
00000090: 7f23 03bd 8560 d43e 8804 5bbe 6cd2 d6bd
000000a0: c452 903d 0f6c 1d3e 65b4 4abe 86f5 47be
000000b0: b0f7 583d 2cd4 c83e eb93 963d 69b1 343e
000000c0: 2b8f ad3e e252 4d3e cfa1 3d3e 8b55 04bd
000000d0: 83aa d03e 7e15 de3e 6ee5 d53e f9fe e13e
000000e0: ebf6 563e 5d29 003d 275e 203e 6f12 543d
000000f0: f8c1 e3bd d78a f13e bcbc 0bbe 4ed9 cebd
00000100: 9c24 d53c 7948 d83e f675 643e 947e ca3e
00000110: b3cd 9e3e 358a e9bd cd4c bfbd e0d0 6a3e
00000120: 140a ee3e ac52 6c3e 90d6 723e 214f 933e
00000130: 00b3 cd3d 7e83 613e b0f3 373e 70a4 ad3e
00000140: bd87 ff3e 4c7e a6bd 9981 793e 4c83 b43e
00000150: 332b 093f f28e 3d3e b8b4 033d d0f9 cb3d
00000160: 409e 15be 22c4 b7bd 348f 8a3e 214d 943e
00000170: e6fd 953d 4c6d 5b3e 4a01 4c3e 327d 2d3e
00000180: 10ac a5bd 6285 99bd 99be 453e 242b a33e
00000190: 52c7 403e af6a ab3e 87a4 293e ee4c 803e
000001a0: 1aa4 c1bd c0e3 86bc e1ff 163f c03a aaba
000001b0: 22bd c23f 171b 643e a67c 3c3e 17a6 2f3e
000001c0: 9ca0 2c3e 0482 513e ad56 ac3e f9cb ec3e
000001d0: cf1b 7f3e 0c38 de3d 798d 86be d492 10bd
000001e0: 6ec7 433e 6eb2 a83e 57dc c63d c944 773e
000001f0: 53ed 2b3f e79d 0a3f 5948 8e3e a7b5 fa3d
00000200: e2e6 cf3d 7c96 453e 056d ea3e 51da 9b3e
00000210: 4e12 5dbd 591a 933e a7b3 5f3e ee9b e33d
00000220: cbac 713d 29ad 843e 71d6 903c a5c3 463f
00000230: 312a c83d d0a6 e13e 9aa2 243e 42c7 a23e
00000240: fab3 813e 1b67 66be b7ee df3e daf1 1fbe
00000250: 09ba 7fbe 41d9 313e f6fe bc3e 8cd5 2e3e
00000260: 90c2 343f 7eef c93c e1b3 453e 09a2 4b3e
00000270: cd88 b93e cb57 a43e e933 be3e cf0a 133e
00000280: 8bc8 d13e 68a1 743e dab7 a93d 8470 ba3b
00000290: 9402 d63e 7b23 633e 94ec 25be af62 ab3e
000002a0: 77c5 8c3d 5959 773e 5b13 b03c 517a 663e
000002b0: b1a8 7e3e ce76 a73e 8a9e 093e ce19 07be
000002c0: 789a 953e 1a7d a03e d7d9 eb3c 2425 6a3e
000002d0: 9255 c8bc 19c5 c7bd f653 b83e 9cf6 9d3d
000002e0: d2f0 a4bd 7f92 af3c 6563 773d bfd9 6c3e
000002f0: 349e 7c3d 873b 6e3e 24eb 983e 79df ba3e
00000300: ba96 cebd 886f 9d3e 3877 e93d b2cd 2bbe
00000310: e7c8 ec3e 9df3 bb3e a4a0 a73e ac6a b43d
00000320: 84b8 cb3e 0e44 673e 8ca8 3b3e 8929 5d3e
00000330: 3246 45bd 8759 273e 79b4 27bd ee6d 873e
00000340: 4d41 b2ba d607 823e fe8f 4e3e 20eb d03d
00000350: b1a9 153f 4e1f aa3e b61f 243e e518 883d
00000360: 77d3 8a3e 5010 693e d587 b23e cf16 59be
00000370: ef32 393e 4b71 ba3e 507e 8d3d ef5a d73d
00000380: f0ce e2bd 53ae 6b3e b5ef c63e f634 5fbe
00000390: 8af3 ca3e 142c 233d 5cea 933d ef3d 5a3e
000003a0: 1d53 cf3c c831 6b3e 700a 853e 2075 683e
000003b0: b9e1 273e 62fd ff3e a52e 3a3d 528a 223d
000003c0: 62ae 943e 798f 473e 4311 bdbd 9f45 86bd
000003d0: bc9d 6dbd c85f 953e 8a5c 52be 304b 3bbd
000003e0: e8ef a13e 27f0 8e3d 8e34 43be cfd7 e93d
000003f0: 8c9f a53d 1a24 883e 9ed8 653d 3916 4c3e
0.18765754 -0.14195903 0.029777298 -0.01946727 0.23192051 0.35177946 0.30646494 0.3789875
0.062023584 -0.13660881 -0.020257358 0.13738632 0.35082948 0.1912275 0.33167976 0.19601677
1.8725648 0.13818966 0.030977828 0.15864769 0.10135674 -0.12904298 0.29481247 0.10770316
0.13944942 0.30300024 0.19012584 0.03801696 0.21702227 0.21361795 0.34885424 0.15118809
0.2416556 -0.08620118 0.43080017 0.15998311 -0.032016274 0.4147989 -0.21388447 -0.104893535
0.07047036 0.15373252 -0.19795378 -0.19527254 0.05297059 0.39224374 0.07352432 0.17645802
0.3389829 0.20051149 0.18518756 -0.032308143 0.4075509 0.43375772 0.41776603 0.4413984
0.20992629 0.031289447 0.15660916 0.051775392 -0.11120981 0.4717624 -0.13646215 -0.10100041
0.026018433 0.42242792 0.22310624 0.39549696 0.3101631 -0.11403314 -0.093408205 0.22931242
0.46492064 0.23078412 0.23714662 0.28771308 0.10043907 0.22022817 0.17964053 0.33914518
0.49908248 -0.08129558 0.24365844 0.35256422 0.5358154 0.1851156 0.03215477 0.09959757
-0.14611149 -0.08972956 0.2706238 0.28965095 0.07323818 0.21428412 0.19922367 0.1694229
-0.08089459 -0.07496144 0.19310988 0.3186885 0.18826035 0.3347983 0.16566668 0.25058693
-0.09455128 -0.016466022 0.5898419 -0.001298748 1.5213969 0.22275959 0.18406925 0.17153202
0.16858143 0.20459753 0.33659878 0.4624937 0.24912952 0.10850534 -0.2627981 -0.035296276
0.19119045 0.3294863 0.09709995 0.24147333 0.67159003 0.5414719 0.27789572 0.12241679
0.10151459 0.19295686 0.457863 0.3044 -0.053972535 0.2873104 0.21845876 0.111137256
0.05900268 0.2591336 0.017680379 0.7764228 0.09773672 0.4407258 0.16077653 0.31792647
0.25332624 -0.22500269 0.43736812 -0.15619603 -0.2497331 0.17368032 0.3691327 0.17073649
0.7060938 0.024650332 0.193069 0.1988603 0.36237183 0.3209823 0.3714898 0.14359592
0.40973315 0.23889697 0.0828702 0.0056896824 0.41798842 0.22181503 -0.16203529 0.33473727
0.06873601 0.24155177 0.021493604 0.22507598 0.24869038 0.32707828 0.13439384 -0.13193437
0.29219413 0.31345445 0.028790398 0.2286573 -0.024454866 -0.0975439 0.36001557 0.07713053
-0.08053745 0.02143216 0.060397524 0.23129939 0.06167431 0.23264895 0.29866898 0.3649862
-0.100873426 0.30749154 0.11399692 -0.16777685 0.46247026 0.367093 0.32739747 0.088094085
0.39789212 0.22584555 0.18326014 0.21597876 -0.048162647 0.16342746 -0.040943597 0.26451057
-0.0013599783 0.25396603 0.20172116 0.102010965 0.58462054 0.3322701 0.16027722 0.06645373
0.2711446 0.22760129 0.34869257 -0.21200107 0.18085836 0.3641456 0.06908858 0.10515391
-0.110746264 0.23015718 0.38854757 -0.21797547 0.3963893 0.039836958 0.07222435 0.21312688
0.025308186 0.22968209 0.25984526 0.2270093 0.163947 0.49998003 0.04545464 0.039682694
0.29039294 0.19488324 -0.09231808 -0.06556248 -0.058011755 0.29174638 -0.20543113 -0.045726
0.31628346 0.06979399 -0.19063017 0.11418115 0.08087072 0.26590043 0.056114785 0.19930352

ln1.weight f4 [400]
00000000: 44e1 803f efd6 0240 5387 b03f 582d 1440
00000010: e448 0a3f edab 543f ef6c 513f e840 4a3f
00000020: 844a db3f 49b5 5b3f 6326 5a3f 22b3 3c3f
00000030: abe4 913f 74ae 1040 09fb ce3e f497 da3f
00000040: c786 b23d b0ad a83f aa64 ae3f 25b8 8f3f
00000050: 49ee 953f c1a6 983f 24e6 383f ed8c be3f
00000060: fa68 873f 38d4 3f3f 42af 5d3f f4b2 d23f
00000070: d967 143f 55cb 953f d789 143f 1160 a23f
00000080: 2b2a cb3f b153 893f 486e 173f 8ee1 873f
00000090: 361a d83f 46b1 063f b282 d43f 31d6 4e40
000000a0: 016b c53f 91f8 2540 6308 1140 c7aa d53f
000000b0: 436c 773f df39 153f f0c3 ad3f 34b7 b03f
000000c0: 72f7 093f 0038 b33f c636 ab3f 71fb bd3f
000000d0: 8e68 d33f 4401 883f 56a8 f63e deee 243f
000000e0: 5cdc 2b3f 6464 ba3f 331d 903f 7b9a 463f
000000f0: 6a65 e83f b672 9b3e 9f91 f23f 94a0 0040
00000100: a20c 653f 5845 f63e 9646 743f a0be ff3e
00000110: 733f 663f 3d6f b33f b1a6 c13f 1555 3b3f
00000120: a98a 163f b4a4 7b3f c233 843f 1b1e ab3f
00000130: 75bc 9f3f 7999 7c3f 2f62 843f e808 783f
00000140: 213b d73e 33a6 c93f 39c2 c73f b4c7 263f
00000150: 16ad de3e fe57 473f 600b ee3f 25f0 a43f
00000160: c968 0240 dfda e83f 5188 413f e73a 653f
00000170: cfa7 ca3f 931c 1040 ea68 1b40 15c1 3c3f
00000180: 8387 9e3f 9088 0940 6afe a03f 8c85 253f
00000190: 84ed 733f 2c95 9b3f 150b d83f b94a c83f
000001a0: 98e1 1840 eab5 db3f 04dd 963e 8ac5 1240
000001b0: 0b0b 023e d2fc 613f 3b2c 0540 904e 873f
000001c0: 1f6c 7a3f 4a3f 883f e23b d33e 5f6e b03e
000001d0: 2e6f 6c3f c501 7c3f 7ec0 0640 3bbc d13f
000001e0: 81d6 273f 8ff0 8c3f 7b3b 563f 1a2a 8c3f
000001f0: 8265 9d3e 9207 3e3f d4f0 6c3f 2ffc 0340
00000200: a656 333f 7cb6 ab3f 031f 823f 31f5 a43f
00000210: 27d2 b83f 0d32 8f3f bea0 9b3f b241 683f
00000220: 7975 d13f 45b8 2c3f 9b0a 493f ffe0 7b3e
00000230: 40f6 a03f 783c 073f e4ab 3c3f 419c 9c3f
00000240: c4eb b03f f5fe 7540 d788 f03e f29d b63f
00000250: c7e1 0040 14a8 993f fa23 1d3f ac82 da3f
00000260: adfc 7c3e 6a31 f83f 5e0d 9e3f 2d0e 6e3f
00000270: 65d2 4f3f 06dd 613f 9632 343f c2da 493f
00000280: ff1a 073f b2b1 563f 6613 c53f ef79 463f
00000290: 5689 453f f254 983f e2b9 2f40 0ec1 5d3f
000002a0: f67d e63f a631 743f b750 513f cf05 273f
000002b0: 418a c23f a9ff 9a3f 758f 883f e310 0640
000002c0: 21db 303f 2428 713f b578 833f fee0 613f
000002d0: 2160 b93f f747 1240 1c43 523f f161 e03f
000002e0: bfbf a43f 9c8b d23f 56a5 433f 13fa fd3f
000002f0: 6371 903f 9f1a 603f 2c3e 893f 4012 fa3e
00000300: 85b2 c13f 06b2 533f 0d3a a43f 82fb f33f
00000310: fe01 1c3f c76c 1e3f f845 533f 77fc 603f
00000320: ecec 6c3f e0dc 0a3f a864 913f 88f3 123f
00000330: f914 d03f 29af 393f 89f4 2540 d860 563f
00000340: 9ad8 a73f 709e 953f 210f 8a3f f0d4 f33f
00000350: 70e6 ae3e 93f3 193f 969b 253f 6d94 1740
00000360: e60b ad3f c77d 1e40 4403 843f f09c c03f
00000370: 4a16 2440 5edc a33f 046c 553f 09bd 8c3f
00000380: 0e4e 2e40 f0f5 2b3f 2ab7 b73f c6d1 d93f
00000390: 0705 fb3f cdcd 1840 af09 aa3f 54c4 333f
000003a0: e0ac d93f ba40 613f e49d bd3f 90fa 7d3f
000003b0: 233a 0d3f 470b bc3e 8950 cc3f 5dd6 903f
000003c0: 2092 8c3f 16b4 903f 8b43 b83f 4a31 683f
000003d0: 3ad5 2640 632a 153f 769d 7740 ed37 d33f
000003e0: 3695 803f 2d60 7b3f cc84 2340 ecc6 553f
000003f0: 3495 443f 49a9 533f d0b0 313f abd4 8a3f
1.0068746 2.0443685 1.3791298 2.3152676 0.5401747 0.8307484 0.81806844 0.7900529
1.7132115 0.85823494 0.85214823 0.73710835 1.1397909 2.2606478 0.404259 1.7077622
0.08717113 1.3178005 1.362447 1.1228071 1.1713344 1.1925889 0.72226167 1.4886757
1.0578911 0.74933195 0.8659555 1.6460862 0.5797096 1.1702677 0.58022827 1.2685567
1.5872244 1.0728666 0.5915265 1.0615709 1.6882999 0.5261425 1.6602385 3.2318232
1.542328 2.5932963 2.266137 1.6692742 0.9664957 0.5829143 1.357542 1.3805909
0.53893197 1.4001465 1.337609 1.4842359 1.6516283 1.0625386 0.48175305 0.6442698
0.67133117 1.4561887 1.1258911 0.7757947 1.8155949 0.30360955 1.895069 2.009801
0.894724 0.4809978 0.95420206 0.49950123 0.89940566 1.4018322 1.5128995 0.731767
0.5880533 0.9829819 1.0328295 1.3368562 1.2479388 0.9867168 1.0342463 0.9688859
0.420373 1.5753845 1.5606147 0.6514847 0.4349143 0.7786864 1.8597221 1.2885786
2.0376456 1.8191794 0.7559863 0.89543 1.5832461 2.251744 2.4282784 0.7373212
1.2385105 2.14896 1.2577641 0.646569 0.95284295 1.2154899 1.6878382 1.5647804
2.3887691 1.7164891 0.29465497 2.2933068 0.12699525 0.882764 2.0808246 1.057085
0.9782123 1.0644314 0.41256624 0.34459206 0.92357147 0.984402 2.1054988 1.6385568
0.6556168 1.1010913 0.8368451 1.0950348 0.30741507 0.742303 0.92554975 2.062267
0.7005409 1.3415065 1.0165714 1.2887326 1.4439133 1.1187149 1.215843 0.90725243
1.6363975 0.67468673 0.7853181 0.24597548 1.257515 0.52826643 0.73699784 1.2235185
1.382195 3.8436863 0.469794 1.4266951 2.0137804 1.2004418 0.6138302 1.7071128
0.24705763 1.939008 1.2347829 0.9299038 0.8118041 0.8822788 0.7038969 0.7884942
0.5277557 0.8386489 1.5396545 0.77529806 0.77162683 1.1900923 2.7457204 0.86622703
1.800719 0.9538826 0.81763786 0.6524324 1.5198442 1.2109271 1.066878 2.0947807
0.69084364 0.94201875 1.0271212 0.88233936 1.4482461 2.2856424 0.8213365 1.7529889
1.2871016 1.6448855 0.7642416 1.9841942 1.1284603 0.8754062 1.0722098 0.4884205
1.5132605 0.8269352 1.2830216 1.9061129 0.6094054 0.6188473 0.8252864 0.8788523
0.92549014 0.5424328 1.1358843 0.5740285 1.62564 0.725329 2.5930502 0.8374152
1.3112977 1.1688976 1.0785867 1.9049358 0.34160185 0.6013729 0.6469053 2.3684342
1.3519256 2.4764268 1.0313497 1.5047894 2.5638604 1.2801626 0.83367944 1.0995189
2.723514 0.67172146 1.4352772 1.7017143 1.9610909 2.387561 1.3284205 0.7022145
1.7005882 0.8798939 1.4813809 0.99210453 0.55166835 0.36727354 1.5962077 1.1315418
1.0982094 1.1304958 1.4395612 0.9070021 2.6067643 0.582678 3.8689857 1.6501442
1.0045536 0.9819363 2.5549803 0.83506656 0.76790166 0.82680184 0.6941042 1.0846151

ln1.bias f4 [400]
00000000: 84c7 65be e915 7dbd 199c 14be 5742 35be
00000010: b876 3fbf 9ea4 febe c82e b2be a38f bebe
00000020: 76bd 46be 2767 1bbf 5178 21bf ceea 07bf
00000030: 6f64 71be 070b 3c3e ac91 33bf 3889 80bd
00000040: ced2 6dbf 42cd 7ebe 46f1 9bbd 6e89 e5bd
00000050: 294d 23be c38f 9abe fe52 12bf f3d9 a8bd
00000060: c40b debe 151e c3be 65a1 26be e43f 3cbe
00000070: 62e8 1cbf 4ee4 2dbe 9a5c f0be d07a e7be
00000080: 278a 45bc b488 15bf 18c0 22bf 65ac bebe
00000090: 1453 d6be d9a5 3dbf 6618 35be 64b9 163e
000000a0: c47e b2be 865f 373d 6498 98bd 6f96 b4be
000000b0: afb7 48be 071e e8be d081 96be d3d4 823c
000000c0: f524 26bf 2226 c8be 0438 a5be 021f d1bd
000000d0: b4d8 213e 77ed 20be 57ea 37bf 5eae dabe
000000e0: c60e 34bf 446b a5be 0f11 72be 414e cbbe
000000f0: 6bfb 7fbd f42b 40bf 9fd7 a7bd 9cc2 91be
00000100: 24d5 e7be 2fca 54bf e217 8ebe 0df2 1fbf
00000110: cee7 d0be 1e11 87be bcef efbe e701 03bf
00000120: 2e18 02bf 0526 b5bd cc98 30be d2ba 95be
00000130: ae15 b9be 6928 cebe a99f 4fbe f94d 45bc
00000140: 5d0d 2abf e2c6 a6be db14 dcbd e95a c8be
00000150: 9c1b 39bf 01a4 bdbe 4e9f 99be 589b 84be
00000160: 617d a6bc 7eac 12be 50db 20bf ca90 cbbe
00000170: 274f d7be e26e 86bd 1309 3cbd 9db0 0fbf
00000180: 9bf7 98be 7284 20be 16b7 afbe fd0c 21bf
00000190: 6233 d2be ba0a 1fbe 98b8 9dbe 5246 b1be
000001a0: 8e12 6a3e 1c2a abbc e317 57bf 1c35 15be
000001b0: 1d5e 62bf 1eed f4be b56b 90be cdf3 21be
000001c0: 0eff 1dbf fc01 29bf e4fa 4ebf 2491 4ebf
000001d0: 0f7c a1be fc77 86be 197b 23be 13eb 95be
000001e0: 13d7 d6be 4189 31be a5ef 03bf 4e52 813d
000001f0: d565 4cbf 4a33 88be f3e6 10bf 93e5 82be
00000200: 7b4b 4dbf 0a2e 92be ae3f 6cbe 48e7 11be
00000210: 96eb b63b 8b9e 77be 3153 d0be 2d23 81be
00000220: b7fe adbe eabf 0cbf b926 0dbf 4464 67bf
00000230: a2c2 ddbe 5edc 44bf f838 11bf cd2c dcbe
00000240: 04c9 87be 130b bd3d 1642 4ebf 22e4 9dbe
00000250: 98ad 83bd fddc b3be 3c20 21bf 5486 05bd
00000260: 4749 3dbf 6b7f adbe 5792 cdbe 4be2 9ebe
00000270: 4578 15bf d0bd dbbe 271b f4be 998d 26bf
00000280: 4774 29bf 6924 2ebf ac56 86bd 291f 12bf
00000290: f47e 00bf 8db9 97be 0e5e 803c e779 c9be
000002a0: e5ff 20be b04f 21bf 5f91 ffbe 0a81 07bf
000002b0: 8f17 4ebe 9bd3 cebd e0a6 8ebe 290e 1a3e
000002c0: 4588 10bf 17bb ebbe 8741 8bbe 2a11 8bbe
000002d0: f41a 95be 6eac b7be 3561 d3be ffdf 03bd
000002e0: a1f7 89be 3b7a a7bd 9abf 2fbf 89de 003d
000002f0: 15e0 0abf b07e b13d e86f 0e3e 9655 54bf
00000300: aac1 24be d0ac ccbe ade2 07bc 2094 2abd
00000310: 8fff 39bf 8a03 10bf e64b 0cbf 18e5 fdbe
00000320: a5ed a1be de67 30bf 32a8 ea3d 845f 16bf
00000330: 6ceb b0be 2b9e 80bd 87de 58be 3536 69be
00000340: 609d 8dbe 225e d1be c13a 4dbe 8884 20bc
00000350: f176 5abf 41f4 eebe f050 15bf 77c6 38be
00000360: d9ff 75be 81ff 6d3d 071d 99bd 327e 1cbe
00000370: 5c26 ca3d 4d6e 563c fe1e 13bf 516c f4be
00000380: 8bce 96bd 9e83 ffbe 523c 47be 59ab 2abe
00000390: 6c1d 673d a849 c33c 0d75 15bf b6d0 1fbf
000003a0: 425a c5bd 620b 16bf 7629 1dbe b22b 65be
000003b0: 59d3 34bf 52a9 5abf 1d24 b3be c972 37bf
000003c0: 4639 5cbd ed24 80bd 8648 debd e7e3 f5be
000003d0: 4c5d 03be ca9d 3bbf 5bdb 943e 8f6f 8ebe
000003e0: 07a4 adbe 275f 13bf 7fe3 fabd 8bec d2be
000003f0: b339 e7be 0460 efbe af3d 10bf 5db4 08bf
-0.2243939 -0.061788473 -0.14512672 -0.17701088 -0.74790525 -0.49734968 -0.34801316 -0.3721896
-0.19408211 -0.60704273 -0.63074213 -0.5309266 -0.23573469 0.18363582 -0.7014415 -0.062761724
-0.9289979 -0.24882987 -0.07614379 -0.11207853 -0.15947403 -0.30187806 -0.57157886 -0.082446955
-0.4336835 -0.38108888 -0.16272505 -0.18383747 -0.6129209 -0.16981623 -0.4694565 -0.45210886
-0.012056864 -0.5841172 -0.6357436 -0.37240902 -0.4186026 -0.7408119 -0.17685089 0.14719158
-0.3486234 0.044768833 -0.07450941 -0.35271022 -0.1960132 -0.4533541 -0.29395914 0.015970623
-0.6490014 -0.39091593 -0.322693 -0.102109924 0.15805322 -0.15715586 -0.7184195 -0.42711157
-0.7033504 -0.323084 -0.2363932 -0.3970814 -0.06249563 -0.7506707 -0.08195423 -0.28468788
-0.452798 -0.8312101 -0.27752596 -0.62478715 -0.40801853 -0.26380247 -0.4686259 -0.5117478
-0.50818145 -0.08845142 -0.17245787 -0.29244095 -0.36149353 -0.40265206 -0.2027575 -0.012042516
-0.6642664 -0.3257361 -0.10746165 -0.3913186 -0.72307754 -0.37039188 -0.30004352 -0.25899768
-0.020323457 -0.14323613 -0.62834644 -0.39758903 -0.42052576 -0.06564118 -0.04590709 -0.56128865
-0.29876408 -0.15675524 -0.3431937 -0.62910444 -0.41054827 -0.15531436 -0.30804896 -0.34623963
0.2285864 -0.020894103 -0.84020823 -0.14571041 -0.88424855 -0.47837156 -0.28207174 -0.15815659
-0.6171731 -0.6601865 -0.8085158 -0.80690217 -0.31539962 -0.26263416 -0.15964927 -0.2928091
-0.41960964 -0.17337514 -0.51537544 0.063145265 -0.79842883 -0.2660163 -0.566024 -0.25565776
-0.801933 -0.2855075 -0.23071167 -0.14248383 0.0055822833 -0.24181573 -0.4068847 -0.2522215
-0.33983395 -0.5498034 -0.5513721 -0.9038737 -0.43312556 -0.76898754 -0.5672755 -0.4300293
-0.2652055 0.09230628 -0.8056959 -0.30838114 -0.06429595 -0.35129538 -0.6293981 -0.03259881
-0.7393994 -0.33886275 -0.4015071 -0.31032023 -0.5838664 -0.42918253 -0.47676966 -0.6505981
-0.6619305 -0.6802431 -0.065595 -0.57078797 -0.50193715 -0.29633752 0.015669849 -0.39350817
-0.15722616 -0.6301222 -0.49915597 -0.52931273 -0.20126174 -0.10098954 -0.2786169 0.15044464
-0.5645793 -0.46041176 -0.2719843 -0.27161533 -0.29122126 -0.3587374 -0.412851 -0.03219604
-0.26946738 -0.081776105 -0.68651736 0.031462226 -0.5424817 0.08666742 0.13909876 -0.82943094
-0.16089502 -0.39975595 -0.00829379 -0.04164517 -0.72655576 -0.562554 -0.5480331 -0.49588847
-0.3162662 -0.6890849 0.11457862 -0.58739495 -0.34554613 -0.06280168 -0.21178637 -0.22774585
-0.2765913 -0.4089213 -0.20041944 -0.009797223 -0.8533774 -0.46670726 -0.58326626 -0.18044458
-0.2402338 0.058104996 -0.0747624 -0.15282515 0.09870598 0.013087821 -0.57469165 -0.4773889
-0.07363614 -0.49905103 -0.19456604 -0.16666926 0.056424543 0.023838833 -0.5838173 -0.6242784
-0.09636356 -0.5861112 -0.15347847 -0.2237995 -0.7063499 -0.8541461 -0.3498849 -0.71659523
-0.053765558 -0.06257043 -0.108536765 -0.48025438 -0.12828559 -0.7328764 0.29073605 -0.27819487
-0.33914205 -0.57567066 -0.12250423 -0.41196093 -0.4516121 -0.46752942 -0.5634412 -0.5340021

fc2.weight f4 [300, 400]
00000000: 36d7 993d c7e9 ff3e 2353 9d3e d397 653f
00000010: d151 f1be 9c76 c63e 36f6 ec3e 1c4a 243f
00000020: f488 4e3f 930a 183e 5075 e43f 89f4 643f
00000030: 9142 c53e 1cb1 523f 3ea9 3d3f 6a60 b13d
00000040: 31a6 2f3e 801d 8c3f be34 2b3f 863b e33e
00000050: 559f 8f3e 43fa c63d a50c 9a3d 82b2 c83d
00000060: 02e3 5b3f b6db 413f 5559 763f c673 253f
00000070: 3d10 383f 2b26 8f3f dfb6 e23e 2968 493f
00000080: 9b90 fa3e da70 b53f d892 c2be afd3 753e
00000090: 7e0e 083f 1767 4b3e 4e10 9c3e 124c 883f
000000a0: dcfc 9fbe 5f3d f93e 9909 1c3f d091 633f
000000b0: 02cf c03f dcb6 023f 7bd2 3d3f b45f 373f
000000c0: 98f5 de3e a323 073f 092c 7f3f 9ff3 423f
000000d0: efe5 0f3f d33c 163f 0278 833f 6b7c 153f
000000e0: 4a23 943f a590 bb3e 0ae1 fb3e 796c f33e
000000f0: 02b2 753f ec26 453f 49a9 5a3f 609d d73f
00000100: 5085 2c3f 65c5 0c3e 919d 8a3f 11df 503f
00000110: fb13 2a3f 3a15 5d3f de8f 943f 0c63 a93e
00000120: 6c00 eb3e 65c5 2e3f cfa8 303f 5455 ee3e
00000130: e8e2 e93d 2521 cf3e f080 093f c669 c83e
00000140: f808 273f e515 933e bf9b cf3e 82e7 333f
00000150: 6d24 233f 09a5 3d3f 2dd3 a33e 3cad 8c3f
00000160: 4bc5 143f ff53 a13e eeb3 773f 4c49 513f
00000170: b09e 603f 1546 293f 4bac 583f f41e 253f
00000180: a7c1 3c3f 9b3b d53e 5f85 1e3f 5cca d33e
00000190: 0abd 3a3f 2f3d 323f 8060 4d3f 07d1 3f3f
000001a0: bccb 143f 02dc 133f 9770 b03e 4b13 093f
000001b0: 9e7b 2c3e 40d1 3d3f 92f4 c63f 1110 043f
000001c0: d3ea 453f 74f4 863f b161 533f 27a7 663e
000001d0: 2c26 ed3d 5ac0 fd3e 4fe9 6b3f b05d 3c3f
000001e0: dac5 243f c525 003f 2b69 233f 1bea c23e
000001f0: e660 103f 6bf4 a83d 378d 7d3f d4fe e53e
00000200: 54ec 79be f69c 743f 2792 3e3f c4ae 073f
00000210: 6f32 2b3e ecbd 983f 7de2 993e a5f9 873e
00000220: a8cb 733f c770 943f e4fc 2f3f 928d f63e
00000230: 5775 d93f 765f d03e 09dc 3e3e 4b98 843e
00000240: bf94 763e d6f5 a03f fa24 063f 557b 853f
00000250: da29 193f 728a 243f 9f8e 543f cfa9 4c3e
00000260: 8df4 673d a2a8 d33f 48ad b23d fc2b 3e3f
00000270: b384 eb3e 9762 5e3f 8db9 0f3f 868e 7c3f
00000280: e86a 3e3f 9104 883f c77e 153f f88c 123e
00000290: c283 b03e 0ea6 2d3f 9e2c a13f 4dd3 303e
000002a0: 8e8a 863f 30bc 3d3e bfbe 963e d8ac f03e
000002b0: 6bed 3e3f 853c 7a3f 3e1c 353f 6f99 8c3f
000002c0: c54e 0d3f 9680 f13c 902c 163f 6858 093f
000002d0: 4e15 a93e 920a ab3f b7cf 163f f1eb 6e3f
000002e0: d4d5 a53f 139d 8e3f b3c9 9d3e 4656 5d3f
000002f0: 255e 793f bfb4 613f 6f21 9c3e 0470 223f
00000300: b23e 923e 82a6 363f 67ba c43e 34fe e43e
00000310: 4573 103f 5cdc 363f cbb9 953f 0991 4d3f
00000320: 132b 643f f676 403f 7aeb 103f 0578 d23e
00000330: f791 983f 839f 9e3e c08f 6f3f 603f bf3e
00000340: b91b bf3e 8a12 cc3c e997 6f3f 166a cd3e
00000350: 0367 453f 7401 123f eb9e c43e 5e11 823f
00000360: c323 ce3e 85fc d73e 09b5 083f 76a9 063e
00000370: 1d7c 243f 3ce1 2b3f 53eb 2a3f 55b5 8a3f
00000380: 0063 1f3f 9fb9 423f 07c3 053f 9b3c b63e
00000390: 7aba a13e 7d16 303f 9e41 093f ffb9 493e
000003a0: 6578 1e3f 3dbd 7b3e e74b 873e e162 793f
000003b0: e679 bf3e c22d b33e 93a7 d23e c9ef a73f
000003c0: a7d9 be3e ed4b 083f 92a1 933f 3fa6 393f
000003d0: 008b 493f 7652 253f 7201 643f 68d4 d43d
000003e0: 84df 863f 8115 5c3f 3bf2 423f d344 dc3e
000003f0: dd74 3f3e 01e7 e93e 49d0 8f3e 40c9 493f
0.07511751 0.49983045 0.3072749 0.8968479 -0.47132733 0.38762367 0.46281594 0.6417558
0.80677724 0.14847784 1.7848301 0.8943563 0.3852735 0.823015 0.7408637 0.08660968
0.1715324 1.0946503 0.66877353 0.4438135 0.28051248 0.097157024 0.07521943 0.09799673
0.8589326 0.7572588 0.9623006 0.6462978 0.7189978 1.1183523 0.44280145 0.7867456
0.4893845 1.4175065 -0.38002658 0.24006532 0.53147113 0.19863544 0.3048119 1.0648215
-0.31247604 0.48679635 0.60952145 0.8889437 1.5063174 0.5106027 0.7414929 0.71630406
0.43546748 0.5278875 0.9967657 0.76152986 0.56210226 0.5868656 1.0270998 0.5839297
1.1573269 0.36633793 0.4919513 0.47543696 0.95974743 0.77012515 0.8541456 1.6844902
0.6739092 0.13747175 1.0829335 0.8159037 0.6643674 0.86360514 1.1606405 0.3308338
0.4589876 0.6826995 0.6900758 0.46549475 0.11420232 0.40454975 0.5371237 0.391432
0.6524806 0.28727642 0.40548512 0.7027513 0.63727456 0.7407995 0.31997052 1.0990367
0.58113545 0.31509396 0.96758926 0.8175247 0.8774214 0.6612256 0.846379 0.64500356
0.7373299 0.41647038 0.6192226 0.41365325 0.729447 0.6962461 0.8022537 0.74928325
0.58123374 0.5775758 0.344609 0.53545064 0.16844031 0.74147415 1.5543387 0.51587015
0.7731144 1.0543351 0.8257094 0.22524701 0.11579546 0.49560815 0.92152876 0.73580456
0.643644 0.5005763 0.6383235 0.38069233 0.56397855 0.08249744 0.990436 0.4492098
-0.24406558 0.95552003 0.7444176 0.53001046 0.16718458 1.193296 0.3005561 0.2655765
0.9523263 1.1596917 0.68745255 0.48154885 1.6988934 0.4069783 0.18638624 0.2589744
0.2408018 1.2575023 0.5240017 1.0428263 0.59829485 0.6427375 0.8303012 0.19986652
0.056629706 1.6535838 0.08724457 0.74285865 0.4599968 0.86869186 0.56142503 0.98654974
0.74381876 1.0626394 0.5839657 0.14311588 0.34475523 0.67831504 1.2591741 0.17268105
1.0511034 0.18528819 0.29442403 0.4700687 0.7458102 0.97748595 0.7074622 1.0984324
0.5519832 0.02948026 0.58661747 0.5365052 0.33024067 1.3362601 0.589107 0.9332877
1.295588 1.1141685 0.30817947 0.8645977 0.9740928 0.8816642 0.30494258 0.6345217
0.28563458 0.7134782 0.38423464 0.44725192 0.5642589 0.7142999 1.1697325 0.8029943
0.89128226 0.7518152 0.5660931 0.41107193 1.1919545 0.30981073 0.9357872 0.3735304
0.37325838 0.024911184 0.9359117 0.4012 0.7711031 0.5703347 0.38402495 1.016155
0.4026166 0.42184845 0.5340124 0.13150582 0.6425188 0.67140555 0.66765326 1.0836588
0.62260437 0.76064485 0.52250713 0.35593113 0.31587583 0.68784314 0.5361575 0.19699858
0.6190246 0.24583907 0.26425096 0.974165 0.3739769 0.34995848 0.41143474 1.3120052
0.3727543 0.53240854 1.1533682 0.72519296 0.7872772 0.6457895 0.89064705 0.10392076
1.0536962 0.8597031 0.76150864 0.4302126 0.18696924 0.45684054 0.28088596 0.7882271

fc2.bias f4 [300]
00000000: 39ec 123f 2478 763e f4ab fd3e eea9 d13e
00000010: 2d8f b33d 2b6a a43e 2248 5c3f 81b6 c03e
00000020: 66ef 0a3f 63a4 283f 4600 913e b71d 053f
00000030: 0061 363e 6d63 7a3f 87e1 fb3e 2b99 123f
00000040: f33c be3e c140 f13e 934a 2b3f 472d 753e
00000050: e872 eb3e 597a 2e3f 6091 043f 848c 053f
00000060: 1ade f03e f16c 043f 22cb 093f 2734 0e3f
00000070: 4e1c c73e 5ccd 8b3e 0416 953f a8a4 bc3e
00000080: 2f35 213f 0f73 d33e 6c7b 263f 7744 553e
00000090: 9bdb b53e 08c9 ba3e bb5a 643f ae3e 0e3f
000000a0: 2c8b f33e 7c04 fd3e b8aa ce3e 7c2d e03e
000000b0: d62e 183f 7947 863e 618e a63f 037b b03e
000000c0: 3c8f 933e 9368 043f fe7f 793e c509 e93e
000000d0: 2c9d 053f cebd a83e 17e8 c93e ec44 1f3f
000000e0: 42aa 233f b97f 3b3f 54ab 8d3e 6cd3 2c3f
000000f0: 768f 2a3f 7225 223e ef73 563f b068 833e
00000100: 5f77 113f cfa0 193f 55b4 9f3f 5449 4d3f
00000110: f7e6 a53e 01ad 953e 98cc 193f b907 ce3e
00000120: 270d e13e 8e1e 1f3f e1cd 833e 396a d63e
00000130: fdcd 003f 61d0 af3e 9672 193f c197 e13e
00000140: ed9a 363e d378 8e3e 8ca9 fe3e a483 3e3f
00000150: f220 2e3f 69b7 3d3e d4aa da3e 999c 3d3f
00000160: c542 6d3e 10aa 1f3f 2299 c53e 8c5d 123f
00000170: 9f0c 2d3e 5984 dd3e 7474 e43e c661 9d3d
00000180: bd69 9a3e bda7 da3d cea7 c03e 8c10 4a3e
00000190: 47ff 1a3e 4207 d73d 74ae 353f af74 ae3e
000001a0: 8558 c53e 4fa8 0a3f 66b2 c33e d73a 913e
000001b0: af25 413f 4504 283f 3575 0a3e 05fe 333e
000001c0: e1c7 c03d 70d2 23bd 1cd1 943d d228 1c3f
000001d0: 8be3 4d3f a4d6 5e3f 075b ec3e 3d2d 863e
000001e0: b48c 9f3e 75d9 8d3f cf3a 013f 981b 223e
000001f0: cc28 bd3e 3dee dd3e beef 2e3d cacf 473f
00000200: a60b 0a3f f464 253e 7a18 d33d ee52 0c3f
00000210: f77c b43e b0d4 b43e a2ab b43e f1a9 7e3f
00000220: efbe a13e b2c6 573e 62e3 e33d 599d 9d3e
00000230: d4d3 003f cfc2 a13e 2f11 c73e 31b8 683e
00000240: 8bb1 063f 4ab2 c53e 77be 9a3e 3dd5 b23f
00000250: 4a0d ab3e 1fbb 803e a8e0 9f3f 581c a23e
00000260: 9e62 eb3e 6904 983e 18b0 973e e8af 9b3f
00000270: 0e3a 443f 74fb ec3e 6b92 ba3e 4aef 153f
00000280: b7e5 f53e 9448 193f 19f4 05bd 100f f43e
00000290: cbf1 df3e 48f4 cb3e bace 2f3f ccd3 f03d
000002a0: c35c 6a3e 8544 8c3f 5b08 cb3e 702a 983e
000002b0: 62fb 553f 55a2 023f d225 fd3e 158a 5f3e
000002c0: 6b71 223f 8a62 663f dc88 f83e 3f66 bc3e
000002d0: d064 923e 774f 003f a329 333e a8c7 423f
000002e0: 133f a73e ef27 673f b963 b4bd 4862 583e
000002f0: ff3c 913e 0102 e73e 3a82 263e 7ea3 083f
00000300: 020f 1c3f 2f48 8e3e 10cf 0f3f d766 883e
00000310: 7e48 523e 9ac1 933e 0b1b b43e 0fa5 1e3f
00000320: f623 1a3f 2d19 ffbd f084 de3e 54cb b13e
00000330: b087 383f df94 7b3f 4d11 113f 23f5 213f
00000340: 4f2f ab3f 7bbf a03e 1c92 093f 75b3 e73e
00000350: 38a1 bc3e fbca 9b3e 6f26 273f de70 9c3f
00000360: 9caa 003f 298b e03e 4056 a63f bead 5f3f
00000370: cb8a fe3e 6182 353f d8e0 423e 9bf3 283f
00000380: a58b c83e 13d5 c33e b9fc d63e 192f e33e
00000390: f879 4a3e 0653 bb3e 0f70 1e3e 72c8 0a3f
000003a0: 0998 993e c910 ea3e 25b5 3b3f e6aa 913f
000003b0: 2710 a43e 8359 e33e 398d d93e bccf 9a3f
000003c0: e964 763e 94cf 3b3e af00 bf3e 8030 5c3f
000003d0: 487f dd3e dc21 c23e f493 8b3f 6d84 273f
000003e0: 1e30 d23d 1b77 e53e beb2 333f 7035 483f
000003f0: d8a7 9d3c 077f 083f ada4 ed3d b1ff 143f
0.573917 0.24069268 0.49545252 0.4094996 0.08767543 0.3211225 0.86047566 0.3763924
0.54271543 0.65875834 0.2832052 0.51998466 0.1781044 0.9780796 0.491955 0.57264966
0.37155876 0.47119716 0.66910666 0.23943053 0.45986104 0.6815544 0.51784325 0.52167535
0.4704445 0.5172873 0.5382558 0.5554833 0.38888782 0.27305114 1.1647344 0.36844373
0.62971777 0.4129872 0.65032077 0.20826899 0.35519108 0.364815 0.89200944 0.5556439
0.47567117 0.49417484 0.40364623 0.43784702 0.59446466 0.26226404 1.30122 0.3446885
0.28820217 0.5172207 0.24365231 0.45515266 0.5219295 0.3295731 0.39434883 0.6221454
0.6393167 0.73241764 0.27669775 0.67510104 0.66625154 0.15834597 0.8377065 0.25665808
0.5682277 0.60011 1.2476908 0.80190015 0.32402775 0.29233554 0.6007781 0.40240267
0.43955347 0.62156 0.2574301 0.41877916 0.50314313 0.34338668 0.5994047 0.44061092
0.17832537 0.27826557 0.4973873 0.7441962 0.6801902 0.18526997 0.42708457 0.74067074
0.23170002 0.6236887 0.38593394 0.5717399 0.16899346 0.43265036 0.44620097 0.076846644
0.30158797 0.10676525 0.37628025 0.19732875 0.15136443 0.10499431 0.7096932 0.34073398
0.38544098 0.5416307 0.38222045 0.28365204 0.75448126 0.65631515 0.13521273 0.1757737
0.09413124 -0.03999561 0.07266447 0.60999787 0.8042533 0.87046266 0.46163198 0.2620639
0.31162035 1.1081988 0.5048036 0.15830839 0.36945188 0.43345824 0.042709105 0.78051436
0.53924024 0.16151792 0.10307403 0.5481404 0.3525159 0.35318518 0.35287195 0.9947806
0.31590983 0.2107189 0.11127354 0.3078411 0.50323224 0.3159394 0.38880298 0.22726513
0.5261466 0.38612586 0.30223438 1.3971325 0.33408576 0.25142762 1.2490435 0.3166225
0.45973676 0.29690865 0.29626536 1.2163057 0.76651084 0.46285594 0.36439833 0.5856825
0.4802682 0.5987637 -0.032703493 0.47667742 0.4373916 0.3983481 0.68674815 0.11759147
0.22886948 1.095841 0.39654812 0.29719877 0.83586705 0.5102895 0.49442917 0.21830018
0.6345431 0.8999411 0.48541915 0.36796758 0.2859254 0.50121254 0.17496352 0.760859
0.3266531 0.9029531 -0.08808083 0.21131241 0.2836685 0.45118716 0.16260615 0.5337447
0.609604 0.27789447 0.5617533 0.2664096 0.20535466 0.28858644 0.35176882 0.6197061
0.6021112 -0.12455974 0.43460798 0.3472544 0.7208204 0.98274034 0.56667024 0.63264674
1.3373812 0.31396088 0.5373857 0.45254102 0.3684175 0.304283 0.6529302 1.2221944
0.5026033 0.4385617 1.2995071 0.87374485 0.49715266 0.7090207 0.19031084 0.6599671
0.3916904 0.382485 0.41989687 0.4437187 0.1977309 0.3658678 0.15472434 0.54212105
0.29998806 0.4571593 0.7332328 1.1380279 0.32043573 0.4440423 0.42490557 1.2094646
0.24061932 0.18340904 0.3730521 0.86011505 0.4326117 0.37916458 1.0904527 0.6543644
0.10263084 0.44817433 0.70194614 0.7820654 0.019245073 0.5331883 0.11603675 0.58202654

ln2.weight f4 [300]
00000000: 9571 723f dbb2 e73f 7c3d a83f f111 1740
00000010: 8ef1 cf3e 531e 7f3f 610b 113f af89 aa3f
00000020: 24fb 583f 9bc8 793f 3b39 0e40 507a 993f
00000030: 236a 0340 1ec0 7d3e bb81 de3f d413 de3e
00000040: 2eb2 de3f c840 9c3f 0b3e f63e ab66 8140
00000050: 2337 963f ca9f 673f 0982 193f 7a28 763f
00000060: 3c13 8d3f 9e5a 9a3f 8bf5 733f e352 ed3e
00000070: dba8 933f 3c43 823f 1454 ac3e 8c08 df3f
00000080: 5648 553f 9656 ea3f 1b5b 5b3e 3bca 0040
00000090: 0516 ba3f c8fc f83f 4560 0d3f 4d56 083f
000000a0: cd66 fa3e bbcb d23f c6da d23f a441 4b3f
000000b0: ac95 f43e 6046 d13f 40df df3e 9476 9b3f
000000c0: c321 0940 34ff 293f 8ec1 0e3f 06d3 eb3f
000000d0: 75cd 013f 03ab 4040 8ce6 9e3f acf0 273f
000000e0: e2df 463f b37a 643f 0664 1140 e518 823f
000000f0: 3719 da3e 1c20 0d40 51c6 053f bf8f fd3f
00000100: 6e2a 523f af76 1c3f 1d8c 243e a810 323f
00000110: be05 d83f 0682 113f 6c99 0a3f 0ec4 d23f
00000120: 9161 c63f 7d1b 7a3f b98e fb3f 6b9b c03f
00000130: 023a 583f 79b8 9e3f 78ed 403f c34e 893f
00000140: 1b94 c83f 043b df3f 14ae 063f 3c32 0b3f
00000150: f8c3 343f a8cb 1f40 15b5 ca3f 9501 d63e
00000160: e58c 7c3f 5d65 873f a00e c83f 0585 813f
00000170: 8b66 e53f 9f0e 403f c332 dd3f cb10 f13f
00000180: 71ac b63f eeac 0f40 0bb6 b93f 8087 cd3f
00000190: 1bd6 f83f fcf0 4440 e1e1 5d3f 1058 d63f
000001a0: a536 a83f cedf 973f 9548 9d3f 3dab 963f
000001b0: 36ad c53e 8fef e83e 4c51 e63f 806a 1140
000001c0: 23d6 2140 2aef 3140 de9d 3b40 a837 4d3f
000001d0: 9426 f03e 0476 de3e 67e1 f93f 4e06 7f40
000001e0: c468 2640 5f6e 1a3f 096a a03f cd2f 913f
000001f0: 8823 3540 55fd cf3f 2937 6d3f cf7c c43e
00000200: 99e5 7a3f 500c 0140 a83c 3240 fb0f 8a3f
00000210: c7f0 bf3f 81d3 6b3f d7f0 c23f 974b 6f3e
00000220: 178c 8c3f f843 c13f 2481 ff3f 3a11 6e40
00000230: 5a77 763f 408a 3a40 5753 f03f 22bb ec3f
00000240: d169 893f d8e7 c33f b077 e83f 8516 1b3e
00000250: e950 8840 9315 bd3f c40b dc3d 159c 923f
00000260: 6673 333f 5c6a cf3f fdae c73f a5cf 533e
00000270: 3994 cc3e 4612 0a3f da38 0940 33ec dd3e
00000280: 2964 883f dc24 593f 15c1 5840 2b33 9c3f
00000290: 5ff5 473f 671c bb3f 19d5 763f 1e6f 1e40
000002a0: 239d fd3f 11cc 8b3e 9fde 9a3f 20be c93f
000002b0: d9ea 2f3f 3225 833f 1c8c 003f cd6a e13f
000002c0: 6d0f 213f 60a8 e03e 1f71 793f 4878 0340
000002d0: 5f9c 1d40 c540 a43f f8f9 2240 c62b b23e
000002e0: 3ca6 3240 b7be 953e f18e 5f40 2638 3240
000002f0: 1daa e33f ebc3 833f 84b9 a13f 26bd a23f
00000300: 98a4 1f3f 9b37 2840 267e 113f a508 a93f
00000310: 7e44 3240 2a49 7c3f 3a7b d53f 343a 3e3f
00000320: 1f11 1b3f bd22 6840 8a48 d43f 0d61 c03f
00000330: 0a49 f73e 24f8 d73e 7f8e c13f 93e3 3e3f
00000340: b167 1a3e 3595 e43f 7246 a83f 6b21 a03f
00000350: a4f3 d73f 2fe9 c93f 7e43 613f 7d3b 623e
00000360: 441c 153f b6cb e23f d4ca a93e b558 203f
00000370: 6203 f13e ebc9 5c3f 7d20 4b40 dadb 7d3f
00000380: fcec af3f 8b15 b73f c609 a43f f41e 3b3f
00000390: cd4b 2440 aec1 9b3f b195 8140 062f c33f
000003a0: 73ca 4d40 0cb4 b93f 508a 013f b95f 2e3e
000003b0: 1c63 bb3f c74f 973f e1b5 b73f e46c 3e3e
000003c0: d745 b93f 6936 f73f 495c ba3f 1f0b e63e
000003d0: 4565 953f cb25 8d3f 0177 0e3f 658f 863f
000003e0: 78b7 3640 1485 063f 23b2 7e3f 97a6 dd3e
000003f0: 019d 1e40 e448 6a3f 79f4 4840 8338 7c3f
0.9470456 1.8101457 1.3143764 2.36047 0.4061398 0.99655646 0.5665799 1.3323268
0.8475821 0.97571725 2.222243 1.1990452 2.053353 0.24780318 1.7383341 0.43374503
1.7398126 1.220727 0.4809421 4.0437827 1.1735576 0.90478194 0.5996404 0.9615551
1.1021495 1.2058904 0.95296544 0.463523 1.1535906 1.0176768 0.33657897 1.7424483
0.833135 1.8307674 0.21421473 2.0123432 1.453797 1.9452143 0.5522502 0.53256685
0.48906556 1.6468424 1.6473014 0.79397035 0.4777044 1.6349602 0.43725014 1.2145562
2.1426857 0.66405034 0.5576409 1.8423774 0.5070413 3.0104377 1.2414107 0.6560161
0.7768537 0.89249724 2.27173 1.0163847 0.42597362 2.2050848 0.5225573 1.9809493
0.8209599 0.61118597 0.16069074 0.69556665 1.6876752 0.56839025 0.54140353 1.6466081
1.5498525 0.97698194 1.965293 1.504743 0.8446351 1.2400047 0.7536235 1.0727161
1.5670198 1.7439885 0.5260937 0.54373527 0.70611525 2.4968052 1.5836512 0.41798082
0.9865249 1.0577809 1.5629463 1.0118719 1.7921919 0.7502231 1.7281116 1.883325
1.4271375 2.2449298 1.450868 1.6056976 1.944034 3.0772085 0.8667279 1.6745625
1.3141676 1.1865175 1.2287775 1.1771008 0.38608712 0.4549527 1.799356 2.2721252
2.5286949 2.7802224 2.9315104 0.8016305 0.46904433 0.43449414 1.9521912 3.9847598
2.6001444 0.6032466 1.2532359 1.1342713 2.8302937 1.6249186 0.9266229 0.3837647
0.9800659 2.0163765 2.7849522 1.0786127 1.4995354 0.92119604 1.5229748 0.23368679
1.0980252 1.5098867 1.9961286 3.7198014 0.96275866 2.914688 1.8775433 1.8494608
1.0735418 1.5305128 1.8161526 0.1514531 4.2598767 1.4772209 0.107444316 1.1453882
0.7009796 1.6204333 1.5600277 0.20684679 0.39956835 0.53934133 2.144095 0.43344268
1.0655566 0.8482187 3.3867848 1.2203115 0.7810878 1.4618043 0.9641891 2.475532
1.9813579 0.27304128 1.2099189 1.5761147 0.68717724 1.0245726 0.5021379 1.7610718
0.6291416 0.4387846 0.97438234 2.0542164 2.4626691 1.2832266 2.546507 0.3479902
2.7913961 0.29247066 3.4930995 2.784677 1.778629 1.0294164 1.263474 1.2713974
0.62360525 2.628394 0.5683311 1.3205763 2.7854304 0.9854914 1.6678231 0.7430756
0.60573 3.6271203 1.6584637 1.5029618 0.48297912 0.42181504 1.5121611 0.74566
0.15078618 1.7858034 1.3146498 1.2510198 1.6871228 1.5774287 0.8799361 0.22093005
0.58246255 1.7718418 0.33162558 0.62635356 0.47072893 0.862456 3.173858 0.9916359
1.3744197 1.4303449 1.2815483 0.73094106 2.5671265 1.2168481 4.049523 1.5248725
3.2154815 1.4508071 0.50601673 0.17028703 1.4639621 1.1821221 1.435238 0.18596226
1.4474438 1.931348 1.4559413 0.4493036 1.167153 1.1027158 0.55650336 1.051251
2.854948 0.5254681 0.99490565 0.4329116 2.4783328 0.9151747 3.1399214 0.9852373

ln2.bias f4 [300]
00000000: 5203 11bf 16e6 abbf 2d33 8fbf e953 51bf
00000010: fd04 03bf 786e 54bf f4db 88bf 460d 22bf
00000020: e453 a5bf 1f0b 65bf 41ff 8abf 6726 a9bf
00000030: ca9f 1fbf 0563 82bf 8685 f6bf 772c 7bbf
00000040: 6649 86bf 30ca 69bf 321a 48bf 6952 52bf
00000050: 433b c7bf aa4c bfbe 5b49 50bf c609 0ebf
00000060: 41ed 8bbf 7e47 7cbf a057 2bbf b3ff 42bf
00000070: 4756 3fbf fc86 3fbf 0b89 7bbf 3d4a 58bf
00000080: 25f6 76bf be2a c5be f8b6 86bf 17f1 e0bf
00000090: 751a 79bf 46f1 8cbf 8b01 8dbf eeb3 24bf
000000a0: 4c3d 3fbf 57de bdbe fa13 cfbf c732 6ebf
000000b0: db4b 97bf bafe 9cbf 70ff 31bf ad77 07bf
000000c0: fab8 83bf c92b 9abf be73 5cbf 8c45 99bf
000000d0: 957c 5bbf 4c8b 3fbf 62bf 7abf 2ab2 5bbf
000000e0: b870 abbf 775e 3cbf 9d06 b2bf 68a8 02bf
000000f0: ece1 1ebf a245 96bf 40e6 49bf 74e8 67bf
00000100: adae 59bf 3822 6fbf 21e8 2cbf 9b90 7fbf
00000110: 2872 19bf 1c71 74bf c909 38bf de21 59bf
00000120: 1069 7fbf 23ff 8fbf 23c3 a5bf d259 61bf
00000130: 780b 6dbf 22ea 81bf e878 59bf 1b6a 68bf
00000140: b191 6bbf 42aa d3bf f597 73bf 0409 43bf
00000150: 99db ccbf 0bfc 48bf 57bf adbf 5f7b 82bf
00000160: 5836 26bf 6da1 1dbf b8f5 5fbf 5882 18bf
00000170: 1eeb 8cbf 641e 2bbf 3f28 38bf 57ca 83bf
00000180: 0057 cfbf f1c1 a1bf ee62 75bf ff28 8abf
00000190: 6923 65bf 20b7 95bf 55fb 49bf 72a7 17bf
000001a0: f0c8 56bf 23b1 8cbf cc8d 4abf 9340 96bf
000001b0: b1de 2abf fd1a 51bf 05c5 a4bf dae1 75bf
000001c0: 2fd5 a7bf e6f5 98bf 7f10 04bf 72aa 5cbf
000001d0: f0ec 5bbf 7449 33bf e31a 9ebf 63d0 8dbf
000001e0: 6f41 31bf e042 3cbf 8bd4 8ebf 56a1 7abf
000001f0: fdd6 22bf 6050 76bf 4a6c f1be beb4 7cbf
00000200: 9b51 69bf 12ea 37bf d538 9dbf a940 86bf
00000210: 8d66 82bf 7108 81bf 6606 3bbf 81ed 92bf
00000220: 30ce 53bf 57b9 83bf b359 babf ec0a 39bf
00000230: f4ec 8abf 3e04 88bf 826e 80bf 4db7 b5bf
00000240: a24a 9abf 7273 7bbf dcb3 ccbf 9428 5ebf
00000250: ce30 4abf 713b 9cbf e8ea 4dbf 4654 8cbf
00000260: 9625 85bf 6aaf 5dbf f8c8 8bbf 9068 38bf
00000270: d7d4 51bf ca55 4ebf 548c a1bf ddd1 5ebf
00000280: 2200 41bf b5cf a4bf 5669 83bf 7c7a 9bbf
00000290: 5544 3bbf 227c a8bf f420 88bf 5b39 9bbf
000002a0: 4684 98bf 8546 8abf c731 4dbf a3cd 83bf
000002b0: 2ce7 8dbf 5611 8fbf 0837 6ebf 7522 e7be
000002c0: d28f 46bf 8852 56bf 553c 8fbf 7667 98bf
000002d0: e40a a3bf 179d b1bf 7f13 a7bf a7bd a8bf
000002e0: 0dc3 5ebf 9d24 8fbf 6657 63bf 1ec0 2fbf
000002f0: b37b 72bf 3748 9dbf d4f4 98bf ab26 6fbf
00000300: f577 a6bf 409d 57bf 73f5 5fbf a068 72bf
00000310: 3efc 77bf 71f0 6abf de74 e7bf 90a4 73bf
00000320: 8e16 71bf 2213 9fbf 0d90 80bf 0a41 98bf
00000330: 406b 41bf e93e 81bf 2b52 53bf 858a 80bf
00000340: c949 1ebf b8c2 e0be f608 8abf 1f7e 87bf
00000350: 3462 6cbf 0a9b 6fbf 92ea 4abf 1688 83bf
00000360: 0346 4abf e690 3ebf e8c1 54bf 9677 f3be
00000370: ed05 36bf f3f4 45bf d535 8fbf 3abb 8bbf
00000380: 4fae b4be 0167 5fbf b544 53bf 4653 62bf
00000390: 108b 9fbf e069 40bf eb99 6abf 2de2 a0bf
000003a0: ef6c 90bf 7928 64bf 0a06 5abf 6005 54bf
000003b0: 8c85 58bf 0d7d 5ebf b859 01bf dcf0 32bf
000003c0: de0e 40bf 6b75 abbf b4e0 56bf a2f3 5bbf
000003d0: c13f 4bbf 6352 16bf 3afe 0fbf dcd5 1bbf
000003e0: d5c3 a5bf 57a4 76bf 02b0 08bf f776 5cbf
000003f0: bdd7 a1bf 24bf 76bf af6e 8abf e863 74bf
-0.5664569 -1.3429592 -1.1187493 -0.8176866 -0.51179487 -0.8298106 -1.0692124 -0.63301504
-1.2916226 -0.89470094 -1.0859147 -1.3214844 -0.62353194 -1.0186468 -1.9259498 -0.9811472
-1.049115 -0.9132414 -0.7816497 -0.82157 -1.556496 -0.37363178 -0.8136193 -0.55483663
-1.0931779 -0.9854659 -0.6693058 -0.76171416 -0.74741024 -0.74815345 -0.98255986 -0.8448828
-0.96469337 -0.38509172 -1.0524588 -1.7573575 -0.97305995 -1.1011131 -1.1016096 -0.6433705
-0.74702907 -0.37083694 -1.6177971 -0.9304623 -1.1820024 -1.2265236 -0.6953039 -0.52916986
-1.0290825 -1.2044612 -0.8611411 -1.1974349 -0.8573697 -0.74821925 -0.97948277 -0.8581873
-1.3393774 -0.7358164 -1.3908268 -0.5103822 -0.6206348 -1.174 -0.7886696 -0.9058907
-0.8503216 -0.9341159 -0.675417 -0.99830025 -0.59939814 -0.9548509 -0.7188993 -0.848173
-0.9976969 -1.1249737 -1.2950176 -0.8802768 -0.92595625 -1.0149577 -0.84950113 -0.90786904
-0.9201918 -1.6536334 -0.95153743 -0.7618563 -1.6004516 -0.7850959 -1.3574017 -1.01939
-0.6492667 -0.6157444 -0.8748431 -0.5957389 -1.1009252 -0.6684325 -0.7193641 -1.0296124
-1.6198425 -1.2637311 -0.9585408 -1.0793761 -0.89507157 -1.169651 -0.7889913 -0.59239876
-0.83900356 -1.0991558 -0.79122615 -1.1738456 -0.6674605 -0.81681806 -1.2872626 -0.9604775
-1.3111933 -1.1950042 -0.5158767 -0.8619758 -0.8590841 -0.70033956 -1.2351955 -1.107922
-0.6924047 -0.73539543 -1.1158613 -0.9790243 -0.63609296 -0.9621639 -0.4715293 -0.9871329
-0.91140145 -0.7184154 -1.2282969 -1.0488483 -1.0187546 -1.0080701 -0.7305664 -1.147873
-0.8273649 -1.0290936 -1.4558624 -0.7228229 -1.0853562 -1.0626295 -1.0033724 -1.4196564
-1.2054026 -0.9822303 -1.5992389 -0.8678067 -0.7898072 -1.220564 -0.80436563 -1.0963218
-1.0402095 -0.86595786 -1.0920706 -0.7203455 -0.8196539 -0.80599654 -1.262095 -0.87038976
-0.7539083 -1.2875887 -1.0266521 -1.2146754 -0.7315114 -1.3162882 -1.0635056 -1.2126878
-1.1915367 -1.0802771 -0.8015408 -1.029713 -1.1086173 -1.1177166 -0.9305272 -0.45143476
-0.775632 -0.8371968 -1.1190287 -1.1906574 -1.2737699 -1.3876065 -1.3052825 -1.3182877
-0.87016374 -1.1183048 -0.88805234 -0.6865252 -0.9472 -1.2287663 -1.1949716 -0.9341838
-1.3005358 -0.8422432 -0.874839 -0.94690895 -0.96869266 -0.91773134 -1.808254 -0.9517298
-0.9417504 -1.2427714 -1.0043961 -1.1894848 -0.75554276 -1.0097324 -0.82547253 -1.0042273
-0.6183134 -0.4389856 -1.0783985 -1.0585364 -0.92337346 -0.93595946 -0.79264176 -1.0275905
-0.7901308 -0.7443985 -0.8310838 -0.47552174 -0.7110279 -0.7732689 -1.1188303 -1.0916512
-0.35289237 -0.87266546 -0.82526714 -0.88408315 -1.2464314 -0.7516155 -0.9164111 -1.2569023
-1.1283244 -0.89124256 -0.85165465 -0.828207 -0.84578776 -0.8690956 -0.50527525 -0.6989877
-0.75022686 -1.3395208 -0.8393662 -0.8591863 -0.79394156 -0.5871946 -0.56247294 -0.608732
-1.2950388 -0.9634451 -0.53393567 -0.86119026 -1.2643963 -0.9638541 -1.0815028 -0.95464945
